baselines/IPPO/ckpt/MPE_simple_facmac_v1/prosocial/IPPO.safetensors (safetensors, 432940 bytes, 32 tensors)

params,Dense_0,bias f4 [128]
0	0x00000000	0.0
1	0x00000000	0.0
2	0x00000000	0.0
3	0x00000000	0.0
4	0x00000000	0.0
5	0x00000000	0.0
6	0x00000000	0.0
7	0x00000000	0.0
8	0x00000000	0.0
9	0x00000000	0.0
10	0x00000000	0.0
11	0x00000000	0.0
12	0x00000000	0.0
13	0x00000000	0.0
14	0x00000000	0.0
15	0x00000000	0.0
16	0x00000000	0.0
17	0x00000000	0.0
18	0x00000000	0.0
19	0x00000000	0.0
20	0x00000000	0.0
21	0x00000000	0.0
22	0x00000000	0.0
23	0x00000000	0.0
24	0x00000000	0.0
25	0x00000000	0.0
26	0x00000000	0.0
27	0x00000000	0.0
28	0x00000000	0.0
29	0x00000000	0.0
30	0x00000000	0.0
31	0x00000000	0.0
32	0x00000000	0.0
33	0x00000000	0.0
34	0x00000000	0.0
35	0x00000000	0.0
36	0x00000000	0.0
37	0x00000000	0.0
38	0x00000000	0.0
39	0x00000000	0.0
40	0x00000000	0.0
41	0x00000000	0.0
42	0x00000000	0.0
43	0x00000000	0.0
44	0x00000000	0.0
45	0x00000000	0.0
46	0x00000000	0.0
47	0x00000000	0.0
48	0x00000000	0.0
49	0x00000000	0.0
50	0x00000000	0.0
51	0x00000000	0.0
52	0x00000000	0.0
53	0x00000000	0.0
54	0x00000000	0.0
55	0x00000000	0.0
56	0x00000000	0.0
57	0x00000000	0.0
58	0x00000000	0.0
59	0x00000000	0.0
60	0x00000000	0.0
61	0x00000000	0.0
62	0x00000000	0.0
63	0x00000000	0.0
64	0x00000000	0.0
65	0x00000000	0.0
66	0x00000000	0.0
67	0x00000000	0.0
68	0x00000000	0.0
69	0x00000000	0.0
70	0x00000000	0.0
71	0x00000000	0.0
72	0x00000000	0.0
73	0x00000000	0.0
74	0x00000000	0.0
75	0x00000000	0.0
76	0x00000000	0.0
77	0x00000000	0.0
78	0x00000000	0.0
79	0x00000000	0.0
80	0x00000000	0.0
81	0x00000000	0.0
82	0x00000000	0.0
83	0x00000000	0.0
84	0x00000000	0.0
85	0x00000000	0.0
86	0x00000000	0.0
87	0x00000000	0.0
88	0x00000000	0.0
89	0x00000000	0.0
90	0x00000000	0.0
91	0x00000000	0.0
92	0x00000000	0.0
93	0x00000000	0.0
94	0x00000000	0.0
95	0x00000000	0.0
96	0x00000000	0.0
97	0x00000000	0.0
98	0x00000000	0.0
99	0x00000000	0.0
100	0x00000000	0.0
101	0x00000000	0.0
102	0x00000000	0.0
103	0x00000000	0.0
104	0x00000000	0.0
105	0x00000000	0.0
106	0x00000000	0.0
107	0x00000000	0.0
108	0x00000000	0.0
109	0x00000000	0.0
110	0x00000000	0.0
111	0x00000000	0.0
112	0x00000000	0.0
113	0x00000000	0.0
114	0x00000000	0.0
115	0x00000000	0.0
116	0x00000000	0.0
117	0x00000000	0.0
118	0x00000000	0.0
119	0x00000000	0.0
120	0x00000000	0.0
121	0x00000000	0.0
122	0x00000000	0.0
123	0x00000000	0.0
124	0x00000000	0.0
125	0x00000000	0.0
126	0x00000000	0.0
127	0x00000000	0.0

params,Dense_0,kernel f4 [20, 128]
0	0x3deddc69	0.116143055
1	0xbe41768f	-0.18892883
2	0xbd1112ef	-0.035418447
3	0xbd8e8fa4	-0.06960991
4	0x3d2a13ee	0.041522913
5	0x3dab176f	0.08354079
6	0x3d4d4ddd	0.050123084
7	0x3d939b52	0.072073594
8	0xbc8ee15a	-0.01744144
9	0xbd0b1b2b	-0.033961456
10	0xbccadfd8	-0.02476494
11	0x3dca306b	0.09872516
12	0xbda09726	-0.07841329
13	0x3d102f8e	0.0352016
14	0x3e4322d5	0.19056256
15	0x3d82ea29	0.06392319
16	0xbd69d422	-0.05708707
17	0x3d9fc5c7	0.07801395
18	0x3e12a6fa	0.14321509
19	0x3e5e8da0	0.21733713
20	0xbe05a4c2	-0.13051131
21	0xbd8a8f85	-0.067656554
22	0x3df8892d	0.12135539
23	0xbd6c45fb	-0.057683926
24	0xbcfb3c80	-0.030668497
25	0x3d65ae9e	0.05607473
26	0xbd277418	-0.0408822
27	0x3e291f27	0.1651579
28	0xbe333b28	-0.17503035
29	0xbd365e4b	-0.04452352
30	0xbe99b5ae	-0.30021423
31	0xbe31927f	-0.1734104
32	0xbe3b7323	-0.1830564
33	0x3cc3f3b2	0.023919914
34	0xbcc28e63	-0.023749536
35	0xbd7cd400	-0.061725616
36	0xbda1c56f	-0.078989856
37	0x3d18f1a9	0.03733984
38	0xbdf944e4	-0.12171343
39	0x3ce03806	0.027370464
40	0x3de71d79	0.11284918
41	0x3ea74a4e	0.32673877
42	0xbcedb3a0	-0.029016316
43	0x3da7d88a	0.081955984
44	0x3d2e9a36	0.042627536
45	0x3e139bac	0.14414853
46	0xbda94662	-0.082653776
47	0x3df0e788	0.11762911
48	0x3b53d161	0.0032320844
49	0xbd7e8637	-0.062139716
50	0x3e45c74b	0.19314305
51	0x3a16af88	0.0005748202
52	0xbca59960	-0.020214736
53	0xbe29dae5	-0.16587408
54	0xbdc98ff6	-0.098419115
55	0x3d42f6d4	0.047598675
56	0x3cdfa272	0.02729914
57	0x3d57da74	0.052698568
58	0xbdda215b	-0.10650893
59	0x3d249c5e	0.040188186
60	0xbc8a7cec	-0.01690527
61	0xbdcbdec3	-0.09954598
62	0xbe18cadd	-0.14921136
63	0x3a81a828	0.0009892033
64	0xbe68f742	-0.22750571
65	0x3d8d8705	0.069105186
66	0x3ddef098	0.10885733
67	0xbd75215f	-0.05984628
68	0x3e7d9c27	0.24766599
69	0x3ceba95c	0.02876728
70	0x3e11bc6e	0.14232036
71	0x3de3a34c	0.11115131
72	0xbd1a3f76	-0.037658177
73	0x3e3ad478	0.18245113
74	0xbded6c6b	-0.11592945
75	0xbdb75b84	-0.08953002
76	0xbe121806	-0.14266977
77	0x3cad5b6b	0.021161756
78	0x3db2d71f	0.08732437
79	0x3d814742	0.063124195
80	0x3da61e43	0.08111241
81	0x3d5f3644	0.05449511
82	0x3d0fdfe7	0.03512564
83	0x3e0d5bb2	0.1380451
84	0xbd927215	-0.07150666
85	0x3c1884c7	0.009309
86	0xbe81f502	-0.2538224
87	0x3c930a65	0.017949292
88	0xbe2682ea	-0.16260877
89	0xbd631623	-0.055441033
90	0x3d8569d6	0.06514327
91	0xbe9cc5cb	-0.30619654
92	0xbe135c5a	-0.14390698
93	0x3def6f71	0.11691178
94	0x3ba5baa2	0.0050576488
95	0x3d453580	0.048146725
96	0xbc294a92	-0.01033272
97	0xbe6e56ff	-0.23275374
98	0x3c014ed6	0.007892331
99	0x3d62ab9e	0.05533945
100	0xbe5ef0d3	-0.21771555
101	0xbd280056	-0.041015945
102	0x3e59379f	0.21212624
103	0xbdc6f899	-0.09715385
104	0x3d78941e	0.06068813
105	0xbd1a8725	-0.03772654
106	0xbe714e92	-0.23565128
107	0x3cf487d8	0.029849932
108	0x3dabf8bb	0.08397051
109	0xbc833916	-0.016018432
110	0x3d00cb34	0.03144379
111	0x3d2d19b9	0.04226086
112	0xbe5d7728	-0.21627486
113	0x3e88dcdf	0.2673101
114	0x3d6ddd21	0.058072213
115	0x3dc6c128	0.097048104
116	0x3e7aaf01	0.24480821
117	0xbc0d873b	-0.0086381985
118	0xbe45275c	-0.19253296
119	0xbdffc8b7	-0.12489455
120	0x3d5426fb	0.051794987
121	0x3e110b4f	0.1416447
122	0xbda62920	-0.08113313
123	0x3ea05b0f	0.31319472
124	0xbdee0165	-0.1162136
125	0xbe059008	-0.13043225
126	0x3db09398	0.08621901
127	0xbe54d021	-0.2078252
128	0xbe4878a9	-0.19577278
129	0xbdbbb172	-0.091647044
130	0xbce17737	-0.027522666
131	0x3e50c347	0.20386992
132	0xbdd81629	-0.10551102
133	0x3e1c0a81	0.15238382
134	0x3b8475c6	0.00404236
135	0x3e2a33ac	0.16621274
136	0xbd291a7b	-0.04128502
137	0xbd97509a	-0.073884204
138	0x3daeb379	0.085303254
139	0x3dca07f9	0.09864802
140	0x3d3807de	0.044929378
141	0xbd2dfd0e	-0.04247766
142	0x3e25a176	0.16174874
143	0xbe07a1fe	-0.13245389
144	0x3e0e4643	0.1389399
145	0x3e4c506e	0.19952556
146	0xbcbec9a0	-0.023289502
147	0xbdc7b2aa	-0.09750874
148	0xbc8ea571	-0.017412873
149	0xbdd776cd	-0.10520706
150	0xbd9c5de8	-0.07635099
151	0xbe36f625	-0.17867334
152	0x3c4cf0b0	0.012508556
153	0xbe2c888e	-0.16848966
154	0xbeeb259b	-0.45927128
155	0x3d84edf0	0.064906955
156	0xbe29f7df	-0.16598462
157	0x3db01960	0.0859859
158	0x3c10b2b3	0.008831668
159	0xba34ee8f	-0.0006902003
160	0xbdf5c8c9	-0.12001187
161	0x3d79e811	0.06101233
162	0xbc600f61	-0.013675542
163	0xbd81e9e1	-0.06343437
164	0x3c787464	0.015164468
165	0x3d3ef3d6	0.04661926
166	0x3d62a37b	0.05533169
167	0xbbc17cc5	-0.0059047663
168	0x3e072153	0.13196306
169	0xbc04895c	-0.00808939
170	0xbc600f8d	-0.013675583
171	0x3bd59cc4	0.006518932
172	0xbe1c0bfe	-0.1523895
173	0xbd8cda1c	-0.068775386
174	0xbe892da2	-0.26792628
175	0xbdb0ec6c	-0.08638844
176	0x3d782747	0.060584333
177	0x3d145091	0.036209647
178	0xbdf2d000	-0.11856079
179	0x3eae9e75	0.34105268
180	0xbcaef25e	-0.021355804
181	0x3b2ccacd	0.0026365996
182	0xbb37d29e	-0.0028049122
183	0x3d9e6225	0.07733563
184	0x3e397d12	0.18114117
185	0xbdcba4c6	-0.099435374
186	0xbdebc95d	-0.115130164
187	0xbd7be32a	-0.061495937
188	0x3e628294	0.22120124
189	0x3e30810e	0.1723673
190	0xbe409513	-0.18806867
191	0xbd72f2a6	-0.05931344
192	0xbdacec80	-0.08443546
193	0x3d8f7aa3	0.07005813
194	0xbe055926	-0.13022289
195	0x3ceddfa7	0.02903731
196	0x3e8a4043	0.27002153
197	0x3ccfb5a9	0.025355177
198	0x3e59220a	0.21204391
199	0x3c0025e3	0.007821533
200	0xbaa0b453	-0.0012260772
201	0xbdc87393	-0.09787669
202	0xbe0a15a7	-0.13484822
203	0x3ac4a557	0.0015002888
204	0x3d1657bb	0.03670476
205	0x3df90d47	0.121607356
206	0xbe0afd9e	-0.1357331
207	0x3d078358	0.033084244
208	0x3e32c4b1	0.17457844
209	0x3bad23bf	0.0052838023
210	0xbe3e206e	-0.18567058
211	0xbd9cbde9	-0.0765341
212	0xbd595f3b	-0.053069334
213	0xbd3b04b4	-0.045658782
214	0x3dd6df36	0.10491793
215	0xbda6bc31	-0.081413634
216	0x3dd61fbf	0.10455274
217	0xbd83131c	-0.06400129
218	0xbe1588e0	-0.14602995
219	0x3e24e54f	0.161031
220	0x3d6aa1b8	0.057283133
221	0xbe5aafc5	-0.21356113
222	0x3e24f9d0	0.16110921
223	0x3dbaee7f	0.09127521
224	0xbd56c2fe	-0.052432053
225	0x3d3bdf55	0.045867283
226	0x3e156c2b	0.14592044
227	0x3e81b959	0.25336722
228	0xbdd6ee17	-0.10494631
229	0xbe0981b6	-0.13428387
230	0xbd9d9f39	-0.07696385
231	0x3e308b28	0.17240584
232	0xbbc322fc	-0.005955098
233	0xbd1581ab	-0.036500614
234	0xbdb27053	-0.087128304
235	0x3e3f8d8c	0.1870634
236	0xbe6ee899	-0.23330916
237	0x3dd42cdf	0.10360121
238	0x3e6f0330	0.2334106
239	0x3e1ad7bd	0.1512136
240	0x3e2c665b	0.1683592
241	0xbd63e089	-0.055634055
242	0xbca194c7	-0.019724263
243	0x3ca5b420	0.020227492
244	0x3d3044fc	0.04303454
245	0x3cb05d7e	0.021528956
246	0x3db15a2b	0.08659776
247	0xbe0dfda8	-0.13866293
248	0xbc4e6299	-0.01259675
249	0x3c9f0cb2	0.019415233
250	0x3d6ca3f7	0.057773557
251	0xbcc7abbb	-0.02437388
252	0xbce32e69	-0.027732091
253	0xbdd66376	-0.104681894
254	0xbde3d70e	-0.11125003
255	0x3e266dee	0.16252872

params,Dense_1,bias f4 [128]
0	0x00000000	0.0
1	0x00000000	0.0
2	0x00000000	0.0
3	0x00000000	0.0
4	0x00000000	0.0
5	0x00000000	0.0
6	0x00000000	0.0
7	0x00000000	0.0
8	0x00000000	0.0
9	0x00000000	0.0
10	0x00000000	0.0
11	0x00000000	0.0
12	0x00000000	0.0
13	0x00000000	0.0
14	0x00000000	0.0
15	0x00000000	0.0
16	0x00000000	0.0
17	0x00000000	0.0
18	0x00000000	0.0
19	0x00000000	0.0
20	0x00000000	0.0
21	0x00000000	0.0
22	0x00000000	0.0
23	0x00000000	0.0
24	0x00000000	0.0
25	0x00000000	0.0
26	0x00000000	0.0
27	0x00000000	0.0
28	0x00000000	0.0
29	0x00000000	0.0
30	0x00000000	0.0
31	0x00000000	0.0
32	0x00000000	0.0
33	0x00000000	0.0
34	0x00000000	0.0
35	0x00000000	0.0
36	0x00000000	0.0
37	0x00000000	0.0
38	0x00000000	0.0
39	0x00000000	0.0
40	0x00000000	0.0
41	0x00000000	0.0
42	0x00000000	0.0
43	0x00000000	0.0
44	0x00000000	0.0
45	0x00000000	0.0
46	0x00000000	0.0
47	0x00000000	0.0
48	0x00000000	0.0
49	0x00000000	0.0
50	0x00000000	0.0
51	0x00000000	0.0
52	0x00000000	0.0
53	0x00000000	0.0
54	0x00000000	0.0
55	0x00000000	0.0
56	0x00000000	0.0
57	0x00000000	0.0
58	0x00000000	0.0
59	0x00000000	0.0
60	0x00000000	0.0
61	0x00000000	0.0
62	0x00000000	0.0
63	0x00000000	0.0
64	0x00000000	0.0
65	0x00000000	0.0
66	0x00000000	0.0
67	0x00000000	0.0
68	0x00000000	0.0
69	0x00000000	0.0
70	0x00000000	0.0
71	0x00000000	0.0
72	0x00000000	0.0
73	0x00000000	0.0
74	0x00000000	0.0
75	0x00000000	0.0
76	0x00000000	0.0
77	0x00000000	0.0
78	0x00000000	0.0
79	0x00000000	0.0
80	0x00000000	0.0
81	0x00000000	0.0
82	0x00000000	0.0
83	0x00000000	0.0
84	0x00000000	0.0
85	0x00000000	0.0
86	0x00000000	0.0
87	0x00000000	0.0
88	0x00000000	0.0
89	0x00000000	0.0
90	0x00000000	0.0
91	0x00000000	0.0
92	0x00000000	0.0
93	0x00000000	0.0
94	0x00000000	0.0
95	0x00000000	0.0
96	0x00000000	0.0
97	0x00000000	0.0
98	0x00000000	0.0
99	0x00000000	0.0
100	0x00000000	0.0
101	0x00000000	0.0
102	0x00000000	0.0
103	0x00000000	0.0
104	0x00000000	0.0
105	0x00000000	0.0
106	0x00000000	0.0
107	0x00000000	0.0
108	0x00000000	0.0
109	0x00000000	0.0
110	0x00000000	0.0
111	0x00000000	0.0
112	0x00000000	0.0
113	0x00000000	0.0
114	0x00000000	0.0
115	0x00000000	0.0
116	0x00000000	0.0
117	0x00000000	0.0
118	0x00000000	0.0
119	0x00000000	0.0
120	0x00000000	0.0
121	0x00000000	0.0
122	0x00000000	0.0
123	0x00000000	0.0
124	0x00000000	0.0
125	0x00000000	0.0
126	0x00000000	0.0
127	0x00000000	0.0

params,Dense_1,kernel f4 [20, 128]
0	0xbdcdf855	-0.10057131
1	0xbe2a1d05	-0.16612633
2	0x3e1edff7	0.15515123
3	0xbdc7dacb	-0.09758528
4	0xbedf1030	-0.43567038
5	0xbd7cce2a	-0.06172005
6	0x3e033927	0.1281477
7	0xbe7b1056	-0.2451795
8	0x3df743a1	0.12073446
9	0xbdef8e9a	-0.11697121
10	0x3e404e22	0.18779805
11	0xbc68179a	-0.014165783
12	0x3d1e5450	0.038654625
13	0xbe4aa4b0	-0.19789386
14	0xbe0b6523	-0.136128
15	0xbe1ec34f	-0.15504192
16	0x3da2700d	0.07931528
17	0xbce2109e	-0.027595814
18	0x3e226ee2	0.15862611
19	0xbcfa11b4	-0.03052602
20	0x3cdb5621	0.026774468
21	0xbce9fa31	-0.028561683
22	0xbd713a0f	-0.05889326
23	0xbce80f52	-0.028327618
24	0xbd4d7c5a	-0.05016742
25	0x3c8ac784	0.01694084
26	0x3d3c9f67	0.046050455
27	0x3d76f35c	0.06029068
28	0xbd3fe337	-0.04684755
29	0xbc9bf78a	-0.019038934
30	0xbe17aaf9	-0.14811315
31	0x3e47d843	0.19516091
32	0x3dd24e1c	0.102688044
33	0xbe7e270f	-0.24819587
34	0x3cf0ac27	0.029378964
35	0x3df9c592	0.12195887
36	0xbdc52f67	-0.09628182
37	0xbc8b6414	-0.017015494
38	0xbd81bec7	-0.06335216
39	0xbda207d7	-0.079116516
40	0xbe1ca3ca	-0.15296856
41	0x3e27ee7a	0.16399565
42	0x3daf2109	0.08551223
43	0xbdf7b89f	-0.120957606
44	0xbd8096e8	-0.06278783
45	0xbe8afbdd	-0.2714528
46	0x3ddd587a	0.10807891
47	0xbe647ad4	-0.2231248
48	0xbcc2c9af	-0.02377781
49	0xbd365040	-0.044510126
50	0x3daaae54	0.08334032
51	0x3d489b85	0.04897644
52	0xbd5d1ce6	-0.053982638
53	0x3cb00f81	0.021491768
54	0x3d169bab	0.03676955
55	0xbd69cc5f	-0.05707967
56	0xbd6e96a1	-0.05824912
57	0x3e17b9cf	0.14816974
58	0x3dd7e42b	0.105415665
59	0xbdee620a	-0.11639793
60	0x3de77d19	0.11303157
61	0x3cc4891b	0.023991158
62	0x3e9c9ad0	0.30586863
63	0x3e66d9b1	0.2254398
64	0x3ca29692	0.019847188
65	0xbcef275d	-0.029193575
66	0x3ca2577b	0.019817105
67	0xbcf09ade	-0.029370721
68	0xbd8d00da	-0.06884928
69	0x3e113871	0.14181687
70	0xbe0b86b6	-0.13625607
71	0x3dbe8cf6	0.0930423
72	0x3dbd58cf	0.092454545
73	0xbdbd0bdd	-0.09230778
74	0x3c3394fe	0.0109608155
75	0x3e01be2b	0.126702
76	0x3da60c8d	0.081078626
77	0x3d7887cb	0.060676377
78	0x3afc39fc	0.0019243355
79	0x3de8a9c8	0.11360508
80	0x3b526e5e	0.003210924
81	0x3cc5c819	0.024143266
82	0x3d2c23d5	0.04202636
83	0xbea5f5a4	-0.3241397
84	0x3c6a7a98	0.014311455
85	0x3df814df	0.12113356
86	0x3e1aa429	0.15101685
87	0xbcb0e5f0	-0.021594018
88	0xbce6ea8f	-0.028188018
89	0xbd1dc409	-0.03851703
90	0xbc0d4584	-0.008622531
91	0xbdab98c0	-0.08378744
92	0xbe045527	-0.12923108
93	0x3e25f428	0.1620642
94	0x3cced9ec	0.025250398
95	0xbd9169e8	-0.07100278
96	0xbe34ec28	-0.17668211
97	0xbd751b65	-0.05984058
98	0xbd7829e4	-0.060586825
99	0xbe21c89d	-0.15799184
100	0xbe13466c	-0.14382333
101	0x3d07d993	0.03316648
102	0xbde76c28	-0.11299926
103	0xbe39c09e	-0.18139884
104	0xbe39a83a	-0.1813058
105	0xbd158604	-0.03650476
106	0x3d1e0230	0.038576305
107	0x3e2f74b3	0.17134361
108	0xbd9835b8	-0.07432121
109	0xbc4f7aa1	-0.012663514
110	0xbbaa549f	-0.005198076
111	0xbceceb23	-0.028920716
112	0xbd5bf141	-0.053696875
113	0x3de6f4dc	0.11277172
114	0x3d46ec81	0.04856539
115	0x3e0fe135	0.14050753
116	0xbdb4e637	-0.088329725
117	0xbeb78abe	-0.3584804
118	0x3d3f511b	0.046708208
119	0xbd9339b5	-0.07188741
120	0x3e07ef42	0.13274863
121	0xbc34c2d1	-0.011032776
122	0x3e150fd0	0.14556813
123	0x3d635545	0.05550124
124	0xbe51d88f	-0.20492767
125	0xbe19c50e	-0.15016577
126	0xbdcc8e84	-0.0998812
127	0xbe4c7774	-0.19967443
128	0xbca45637	-0.020060642
129	0xbbe3394b	-0.00693432
130	0x3d2bdfba	0.04196141
131	0x3d6e104a	0.058121003
132	0x3e106d01	0.14104082
133	0xbdaaaf19	-0.083341785
134	0x3e014e22	0.12627462
135	0xbce60557	-0.028078718
136	0x3dd45156	0.10367076
137	0xbe6a0994	-0.22855216
138	0x3e642016	0.22277865
139	0x3d6e7c57	0.05822405
140	0xbda27f10	-0.079343915
141	0xbe2358b1	-0.15951802
142	0x3e211115	0.15729173
143	0xbc40fcea	-0.011779049
144	0xbc51cda9	-0.012805381
145	0x3c809a86	0.015698683
146	0xbdb44881	-0.088028915
147	0x3c5583e8	0.013031937
148	0x3d80da60	0.06291652
149	0x3cfb2127	0.030655457
150	0x3ea468e7	0.32111284
151	0xbda5596d	-0.08073697
152	0xbe2d95a9	-0.16951622
153	0x3debedd7	0.11519974
154	0x3e2a6fdd	0.16644235
155	0x3c43612b	0.011925022
156	0x3c66e0de	0.014091698
157	0xbe0d17d5	-0.13778622
158	0xbd52bb02	-0.051447876
159	0x3d9c3a3b	0.07628294
160	0x3ddbc6c7	0.10731273
161	0x3de757de	0.11296056
162	0x3e01aabd	0.12662788
163	0xbdd8842b	-0.10572084
164	0x3c33f4d4	0.010983665
165	0x3ccd3e5f	0.025054155
166	0xbe4ec309	-0.20191588
167	0x3dc0eed1	0.094205506
168	0xbda8b2ea	-0.0823725
169	0xbe141531	-0.14461209
170	0xbe30adc6	-0.1725379
171	0xbdb1966f	-0.08671271
172	0xbe389a17	-0.1802753
173	0xba01de47	-0.00049540814
174	0xbcbc4963	-0.022984212
175	0x3e17f20a	0.14838424
176	0x3d924a67	0.07143097
177	0x3dca23ee	0.09870134
178	0xbd59f378	-0.053210706
179	0xbe6e3cea	-0.23265424
180	0x3dd92b68	0.10603982
181	0xbc8fe465	-0.017564962
182	0x3e6f37ab	0.2336108
183	0x3e21f17d	0.15814777
184	0xbd8278fe	-0.06370734
185	0x3de6ef98	0.11276168
186	0x3d6cb3d7	0.057788696
187	0xbdb1104c	-0.086456865
188	0xbd9717d6	-0.07377593
189	0x3d52e064	0.051483527
190	0x3da36b12	0.079794064
191	0xbd7329ee	-0.05936616
192	0xbd738ef8	-0.059462517
193	0x3e66f061	0.22552635
194	0xbe487e1b	-0.19579355
195	0x3e2d351e	0.16914794
196	0xbe02918c	-0.12750834
197	0x3e5d93e7	0.21638452
198	0xbe6e1443	-0.23249917
199	0xbe1c6f1e	-0.15276763
200	0x3da8572d	0.082197525
201	0x3db67b0b	0.08910187
202	0xbe8fd9f7	-0.2809598
203	0xbd620da2	-0.055188783
204	0xbda4bbe6	-0.08043651
205	0xbbaf3b30	-0.005347632
206	0xbe817590	-0.25285006
207	0xbd818409	-0.06324012
208	0xbe332190	-0.17493272
209	0xbc188f03	-0.00931144
210	0xbd9852b7	-0.074376516
211	0x3dc0bf87	0.09411531
212	0x3c9d051c	0.019167475
213	0xbc2f3a37	-0.010695032
214	0x3dc2f8c3	0.09520104
215	0x3e2b81fe	0.16748807
216	0x3da798d7	0.08183449
217	0x3c79f187	0.0152553385
218	0xbda28477	-0.07935422
219	0xbd88e73e	-0.06684731
220	0xbe468b7b	-0.19389145
221	0x3de8cca0	0.11367154
222	0xbc99b6af	-0.018763868
223	0x3d8051dd	0.06265614
224	0xbe1a6869	-0.15078892
225	0xbd813641	-0.06309176
226	0xbe2bdde4	-0.16783863
227	0x3da5dee4	0.08099154
228	0xbe34e834	-0.17666703
229	0x3d95a619	0.07307071
230	0x3dde58bf	0.10856771
231	0x3dc594ef	0.096475475
232	0xbd73afa2	-0.05949367
233	0xbe063d57	-0.13109337
234	0xbaee77da	-0.0018193678
235	0xbdf2bc41	-0.11852313
236	0x3e6d6f91	0.2318709
237	0xbde071f3	-0.10959234
238	0xbd9c5d70	-0.07635009
239	0x3dfc7b39	0.1232819
240	0xbd49f5b9	-0.049306605
241	0xbdad77e2	-0.084701315
242	0xbe019190	-0.12653184
243	0xbdb53ec4	-0.08849862
244	0x3e139e00	0.14415741
245	0xbddde28b	-0.10834225
246	0x3e2ad087	0.1668111
247	0x3d437e46	0.047727846
248	0xbcd267a3	-0.025684183
249	0xbd51105f	-0.051041003
250	0xbea732a7	-0.32655832
251	0xbe5cbe11	-0.2155688
252	0x3d9bac1b	0.07601186
253	0xbe28a980	-0.16470909
254	0x3de9b2e9	0.114110775
255	0xbc8b0598	-0.01697044

params,Dense_10,bias f4 [128]
0	0x00000000	0.0
1	0x00000000	0.0
2	0x00000000	0.0
3	0x00000000	0.0
4	0x00000000	0.0
5	0x00000000	0.0
6	0x00000000	0.0
7	0x00000000	0.0
8	0x00000000	0.0
9	0x00000000	0.0
10	0x00000000	0.0
11	0x00000000	0.0
12	0x00000000	0.0
13	0x00000000	0.0
14	0x00000000	0.0
15	0x00000000	0.0
16	0x00000000	0.0
17	0x00000000	0.0
18	0x00000000	0.0
19	0x00000000	0.0
20	0x00000000	0.0
21	0x00000000	0.0
22	0x00000000	0.0
23	0x00000000	0.0
24	0x00000000	0.0
25	0x00000000	0.0
26	0x00000000	0.0
27	0x00000000	0.0
28	0x00000000	0.0
29	0x00000000	0.0
30	0x00000000	0.0
31	0x00000000	0.0
32	0x00000000	0.0
33	0x00000000	0.0
34	0x00000000	0.0
35	0x00000000	0.0
36	0x00000000	0.0
37	0x00000000	0.0
38	0x00000000	0.0
39	0x00000000	0.0
40	0x00000000	0.0
41	0x00000000	0.0
42	0x00000000	0.0
43	0x00000000	0.0
44	0x00000000	0.0
45	0x00000000	0.0
46	0x00000000	0.0
47	0x00000000	0.0
48	0x00000000	0.0
49	0x00000000	0.0
50	0x00000000	0.0
51	0x00000000	0.0
52	0x00000000	0.0
53	0x00000000	0.0
54	0x00000000	0.0
55	0x00000000	0.0
56	0x00000000	0.0
57	0x00000000	0.0
58	0x00000000	0.0
59	0x00000000	0.0
60	0x00000000	0.0
61	0x00000000	0.0
62	0x00000000	0.0
63	0x00000000	0.0
64	0x00000000	0.0
65	0x00000000	0.0
66	0x00000000	0.0
67	0x00000000	0.0
68	0x00000000	0.0
69	0x00000000	0.0
70	0x00000000	0.0
71	0x00000000	0.0
72	0x00000000	0.0
73	0x00000000	0.0
74	0x00000000	0.0
75	0x00000000	0.0
76	0x00000000	0.0
77	0x00000000	0.0
78	0x00000000	0.0
79	0x00000000	0.0
80	0x00000000	0.0
81	0x00000000	0.0
82	0x00000000	0.0
83	0x00000000	0.0
84	0x00000000	0.0
85	0x00000000	0.0
86	0x00000000	0.0
87	0x00000000	0.0
88	0x00000000	0.0
89	0x00000000	0.0
90	0x00000000	0.0
91	0x00000000	0.0
92	0x00000000	0.0
93	0x00000000	0.0
94	0x00000000	0.0
95	0x00000000	0.0
96	0x00000000	0.0
97	0x00000000	0.0
98	0x00000000	0.0
99	0x00000000	0.0
100	0x00000000	0.0
101	0x00000000	0.0
102	0x00000000	0.0
103	0x00000000	0.0
104	0x00000000	0.0
105	0x00000000	0.0
106	0x00000000	0.0
107	0x00000000	0.0
108	0x00000000	0.0
109	0x00000000	0.0
110	0x00000000	0.0
111	0x00000000	0.0
112	0x00000000	0.0
113	0x00000000	0.0
114	0x00000000	0.0
115	0x00000000	0.0
116	0x00000000	0.0
117	0x00000000	0.0
118	0x00000000	0.0
119	0x00000000	0.0
120	0x00000000	0.0
121	0x00000000	0.0
122	0x00000000	0.0
123	0x00000000	0.0
124	0x00000000	0.0
125	0x00000000	0.0
126	0x00000000	0.0
127	0x00000000	0.0

params,Dense_10,kernel f4 [128, 128]
0	0xbc543ecb	-0.012954424
1	0x3dc2c3c4	0.095099956
2	0x3cde201b	0.027114918
3	0x3dfd565e	0.12369989
4	0xbd88f065	-0.066864766
5	0xbcc75bc7	-0.024335755
6	0x3d092c09	0.03348926
7	0x3e712f9d	0.2355332
8	0xbd56f9df	-0.05248439
9	0x3da7e8fe	0.081987366
10	0xbc5763de	-0.013146369
11	0x3dc7a221	0.097477205
12	0xbdc1e581	-0.094676025
13	0xbc58d3ac	-0.01323406
14	0x3d33fafd	0.043940533
15	0x3d974c36	0.07387583
16	0x3e88bcba	0.26706487
17	0x3db6ce9d	0.08926127
18	0xbd18f715	-0.03734501
19	0xbe6f4777	-0.23367105
20	0x3b409876	0.0029387749
21	0x3d79cff9	0.060989354
22	0xbded4895	-0.115861095
23	0xbcfb3016	-0.030662578
24	0xbd87055d	-0.0659282
25	0xbd9b2646	-0.075756595
26	0xbdbe8fbb	-0.09304758
27	0x3e389800	0.18026733
28	0x3e23ca9a	0.15995255
29	0xbc86bb4e	-0.016446736
30	0xbeb050dd	-0.34436694
31	0xbb6f85de	-0.0036548297
32	0x3c276884	0.01021779
33	0xbcd3cc94	-0.025854386
34	0x3ce09c82	0.027418379
35	0x3d050353	0.032473873
36	0xbdc4bade	-0.096059546
37	0xbd001c4f	-0.031276997
38	0xbe25631e	-0.16151091
39	0x3d83b7cb	0.0643154
40	0xbd9b939f	-0.07596516
41	0x3df1596a	0.117846325
42	0x3ce89c5c	0.02839487
43	0x3e639659	0.22225322
44	0x3e2f0220	0.17090654
45	0xbe1f3ad2	-0.15549782
46	0x3db7241d	0.08942435
47	0xbd041fae	-0.032256775
48	0xbd407ca4	-0.046993867
49	0xbcb4715a	-0.022026706
50	0x3c451ef6	0.012031307
51	0x3dcbc7e8	0.099502385
52	0x3e5f60a7	0.21814214
53	0xbc74bcbe	-0.014937578
54	0x3de0d317	0.10977762
55	0x3d2232e5	0.039599318
56	0xbdae92f8	-0.08524126
57	0xbe39e0e6	-0.18152198
58	0x3dc7a694	0.09748569
59	0x3d4c03b4	0.04980822
60	0xbd47e339	-0.04880068
61	0x3e7dcb97	0.24784695
62	0x3d53a2ea	0.05166904
63	0xbdd70de0	-0.10500693
64	0xbcd23546	-0.025660168
65	0xbd321ba9	-0.04348341
66	0x3e85fff7	0.26171848
67	0xbca90a42	-0.020634774
68	0xbde03a5c	-0.10948631
69	0xbe4af4e8	-0.19819987
70	0xbcfa3bb2	-0.030546043
71	0x3e1b12ba	0.15143862
72	0xbdfb1092	-0.1225902
73	0x3cb0ca77	0.021580918
74	0xbdb63eac	-0.088986725
75	0x3e5ef163	0.21771769
76	0xbd270fc7	-0.04078653
77	0x3cb7224d	0.022355223
78	0xbd53b971	-0.051690523
79	0xbe1649ee	-0.1467664
80	0xbd30bafa	-0.043147065
81	0x3ce1eb05	0.027577886
82	0xbe2c017e	-0.16797444
83	0xbb89cb00	-0.0042051077
84	0xbc8eb2b9	-0.017419206
85	0x3c8726fe	0.016498085
86	0xbe1759f8	-0.14780414
87	0xbe495c59	-0.19664134
88	0xbaa920ef	-0.0012903492
89	0x3b67870b	0.0035328295
90	0x3dd3a96d	0.1033505
91	0x3dd1f398	0.1025154
92	0x3cd5535a	0.026040722
93	0xbe5b2b2c	-0.21403188
94	0x3e4f8640	0.20266056
95	0xbe26dccd	-0.16295166
96	0xbe02af2f	-0.1276214
97	0x3dd325e3	0.10309961
98	0xbe38e376	-0.1805552
99	0x3c08352b	0.0083134575
100	0xbda35613	-0.07975402
101	0xbe84b4a8	-0.2591908
102	0x3dc4bf3d	0.09606788
103	0x3dae1ac5	0.085012
104	0x3de76af5	0.11299697
105	0xbe32852e	-0.17433617
106	0xbde54003	-0.1119385
107	0xbe29684a	-0.1654369
108	0xbe90fc24	-0.28317368
109	0xbe27a666	-0.1637207
110	0x3e756a88	0.2396642
111	0xbe46af01	-0.19402696
112	0x3db40b1c	0.087911814
113	0xbcea5eec	-0.028609715
114	0xbdf2bb30	-0.118521094
115	0x3dccfe21	0.10009409
116	0x3e650b51	0.22367598
117	0xbe011822	-0.12606862
118	0xbe2530db	-0.16131918
119	0xbe5a9c19	-0.21348609
120	0xbd0169c8	-0.03159502
121	0xbe57739d	-0.21040197
122	0x3da70029	0.081543274
123	0xbdc558db	-0.096360885
124	0x3ca1afd1	0.019737156
125	0xbcb62f01	-0.02223921
126	0x3dd53d24	0.10412052
127	0x3c92e151	0.017929705
128	0x3c97a46f	0.018511025
129	0x3e019824	0.12655693
130	0xbe7e2c71	-0.2482164
131	0xbd9c18e1	-0.07621933
132	0xbd2152c2	-0.039385565
133	0xbdbf7563	-0.093485616
134	0x3c98caa9	0.018651323
135	0xbcafb5eb	-0.02144905
136	0x3e4ece00	0.2019577
137	0x3ecefc91	0.40427068
138	0x3d4c60f2	0.04989714
139	0xbdd853fd	-0.105628945
140	0xbdd6e5e4	-0.10493067
141	0x3d0082e9	0.031374846
142	0xbc796ff2	-0.015224444
143	0x3cf1935d	0.029489214
144	0x3db70d3c	0.08938071
145	0x3d61c906	0.05512335
146	0x3d214ba3	0.039378773
147	0x3c848d30	0.016180605
148	0xbd9bb667	-0.0760315
149	0x3e3382af	0.1753032
150	0x3d3000ea	0.04296962
151	0xbdb33db8	-0.08752006
152	0x3db264e9	0.08710653
153	0x3d1be0d5	0.038056213
154	0x3d71f39c	0.059070215
155	0xbd148a1a	-0.036264516
156	0xbd182a7a	-0.037149884
157	0xbe408f8a	-0.18804756
158	0xbd945229	-0.07242233
159	0x3dbc6eff	0.09200858
160	0x3e1045d5	0.14089139
161	0x3e2a28df	0.16617154
162	0xbd80587f	-0.06266879
163	0xbe0cf645	-0.1376582
164	0x3e86307d	0.2620887
165	0x3e044332	0.12916258
166	0x3d824819	0.06361408
167	0x3d619da7	0.05508199
168	0xbdab276a	-0.08357127
169	0xbe1aba88	-0.15110219
170	0x3e1988f5	0.14993651
171	0xbe168003	-0.1469727
172	0x3dd1d97f	0.10246562
173	0xbe3a7666	-0.18209228
174	0xbd203c26	-0.039119862
175	0xbdbbcca9	-0.09169895
176	0x3df71390	0.12064278
177	0xbc6dcd1d	-0.014514235
178	0x3c2905fe	0.01031637
179	0xbbd287ca	-0.0064248787
180	0x3d31c4e0	0.043400645
181	0xbd582488	-0.052769214
182	0x3d7c850a	0.061650313
183	0x3d2bff9b	0.04199181
184	0xbd736bce	-0.059428982
185	0xbcab75f1	-0.020930262
186	0x3cee7b1b	0.029111436
187	0xbe4ee78a	-0.20205513
188	0x3e368e25	0.17827661
189	0x3e92b89d	0.28656474
190	0x3db1f46a	0.086891964
191	0x3d9d85c6	0.07691531
192	0xbd9d5973	-0.07683077
193	0xbd46f43a	-0.048572756
194	0xbe28599c	-0.16440433
195	0x3d1973b5	0.037463862
196	0xbda872da	-0.08225031
197	0x3dd4df88	0.10394198
198	0xbd3ee7bb	-0.046607714
199	0x3d3b5977	0.045739617
200	0x3e0b1f81	0.13586237
201	0x3d704f74	0.058669522
202	0x3c4d5ef2	0.012534844
203	0xbe6274ab	-0.22114818
204	0xbb8324e0	-0.0040021986
205	0x3e64f7a5	0.22360094
206	0x3b66622c	0.003515373
207	0xbdf4cc30	-0.11953008
208	0xbe723b72	-0.23655489
209	0x3cb05289	0.02152373
210	0xbe3348bc	-0.17508215
211	0xbdc68b36	-0.09694521
212	0xbdd25dfa	-0.10271831
213	0xbe0dddd2	-0.13854149
214	0x3e7bf620	0.24605608
215	0xbdba3c40	-0.09093523
216	0x3bb07829	0.005385418
217	0x3cb9e0f0	0.022690266
218	0xbe9b7980	-0.30366135
219	0x3e72fea5	0.23729952
220	0x3db93b58	0.09044522
221	0x3d8aed8e	0.06783591
222	0x3d625c5b	0.05526386
223	0xbe517d0f	-0.20457862
224	0x3cd42b21	0.025899472
225	0xbe70f0be	-0.23529336
226	0xbd9d621f	-0.07684731
227	0x3e00947f	0.12556647
228	0x3e295b95	0.16538842
229	0xbcb85931	-0.022503467
230	0xbe00617a	-0.12537184
231	0xbdf37448	-0.11887413
232	0xbdeb94c4	-0.11502984
233	0xbd116bf5	-0.035503346
234	0xbb93f8d5	-0.004515747
235	0x3dc3d50f	0.09562122
236	0x3cc8dd1d	0.024519498
237	0x3e8f2dc0	0.27964592
238	0x3d6543c7	0.05597284
239	0xbe2bc2de	-0.16773555
240	0xbe14d374	-0.14533788
241	0x3ddaad8a	0.10677631
242	0xbd156e61	-0.03648222
243	0x3d66e233	0.056368064
244	0x3d8f12c8	0.06986004
245	0xbe3574c6	-0.17720327
246	0xbe35f599	-0.1776947
247	0xbb4380c5	-0.0029831391
248	0x3d02ca5a	0.03193126
249	0x3de9a1d2	0.11407818
250	0x3c952a55	0.018208662
251	0xbcd43354	-0.025903381
252	0x3de4f77a	0.11180015
253	0xbdcd443e	-0.10022782
254	0xbe5d8b21	-0.21635105
255	0x3dbd4151	0.09240974

params,Dense_11,bias f4 [128]
0	0x00000000	0.0
1	0x00000000	0.0
2	0x00000000	0.0
3	0x00000000	0.0
4	0x00000000	0.0
5	0x00000000	0.0
6	0x00000000	0.0
7	0x00000000	0.0
8	0x00000000	0.0
9	0x00000000	0.0
10	0x00000000	0.0
11	0x00000000	0.0
12	0x00000000	0.0
13	0x00000000	0.0
14	0x00000000	0.0
15	0x00000000	0.0
16	0x00000000	0.0
17	0x00000000	0.0
18	0x00000000	0.0
19	0x00000000	0.0
20	0x00000000	0.0
21	0x00000000	0.0
22	0x00000000	0.0
23	0x00000000	0.0
24	0x00000000	0.0
25	0x00000000	0.0
26	0x00000000	0.0
27	0x00000000	0.0
28	0x00000000	0.0
29	0x00000000	0.0
30	0x00000000	0.0
31	0x00000000	0.0
32	0x00000000	0.0
33	0x00000000	0.0
34	0x00000000	0.0
35	0x00000000	0.0
36	0x00000000	0.0
37	0x00000000	0.0
38	0x00000000	0.0
39	0x00000000	0.0
40	0x00000000	0.0
41	0x00000000	0.0
42	0x00000000	0.0
43	0x00000000	0.0
44	0x00000000	0.0
45	0x00000000	0.0
46	0x00000000	0.0
47	0x00000000	0.0
48	0x00000000	0.0
49	0x00000000	0.0
50	0x00000000	0.0
51	0x00000000	0.0
52	0x00000000	0.0
53	0x00000000	0.0
54	0x00000000	0.0
55	0x00000000	0.0
56	0x00000000	0.0
57	0x00000000	0.0
58	0x00000000	0.0
59	0x00000000	0.0
60	0x00000000	0.0
61	0x00000000	0.0
62	0x00000000	0.0
63	0x00000000	0.0
64	0x00000000	0.0
65	0x00000000	0.0
66	0x00000000	0.0
67	0x00000000	0.0
68	0x00000000	0.0
69	0x00000000	0.0
70	0x00000000	0.0
71	0x00000000	0.0
72	0x00000000	0.0
73	0x00000000	0.0
74	0x00000000	0.0
75	0x00000000	0.0
76	0x00000000	0.0
77	0x00000000	0.0
78	0x00000000	0.0
79	0x00000000	0.0
80	0x00000000	0.0
81	0x00000000	0.0
82	0x00000000	0.0
83	0x00000000	0.0
84	0x00000000	0.0
85	0x00000000	0.0
86	0x00000000	0.0
87	0x00000000	0.0
88	0x00000000	0.0
89	0x00000000	0.0
90	0x00000000	0.0
91	0x00000000	0.0
92	0x00000000	0.0
93	0x00000000	0.0
94	0x00000000	0.0
95	0x00000000	0.0
96	0x00000000	0.0
97	0x00000000	0.0
98	0x00000000	0.0
99	0x00000000	0.0
100	0x00000000	0.0
101	0x00000000	0.0
102	0x00000000	0.0
103	0x00000000	0.0
104	0x00000000	0.0
105	0x00000000	0.0
106	0x00000000	0.0
107	0x00000000	0.0
108	0x00000000	0.0
109	0x00000000	0.0
110	0x00000000	0.0
111	0x00000000	0.0
112	0x00000000	0.0
113	0x00000000	0.0
114	0x00000000	0.0
115	0x00000000	0.0
116	0x00000000	0.0
117	0x00000000	0.0
118	0x00000000	0.0
119	0x00000000	0.0
120	0x00000000	0.0
121	0x00000000	0.0
122	0x00000000	0.0
123	0x00000000	0.0
124	0x00000000	0.0
125	0x00000000	0.0
126	0x00000000	0.0
127	0x00000000	0.0

params,Dense_11,kernel f4 [128, 128]
0	0xbd0df8c2	-0.034661062
1	0xbe13db73	-0.14439182
2	0x3deb5614	0.114910275
3	0xbe2cdcd5	-0.16881116
4	0x3c91b515	0.017786542
5	0xbdcc814f	-0.09985601
6	0x3e1a1752	0.15047958
7	0x3e198421	0.1499181
8	0xbe28288e	-0.1642172
9	0xbd9a69c1	-0.07539702
10	0xbe89009e	-0.26758283
11	0xbcddf1de	-0.02709287
12	0xbe2876fb	-0.16451637
13	0x3da03fb8	0.078246534
14	0x3e1ecd2d	0.15507956
15	0xbe4d36ad	-0.20040388
16	0xbe6e2514	-0.23256332
17	0x3e0ba38a	0.13636604
18	0x3da8a129	0.08233864
19	0x3b8f6843	0.0043764426
20	0xbd7f4e28	-0.062330395
21	0x3e00b7c3	0.125701
22	0xbe6b621f	-0.22986649
23	0x3db4121d	0.08792517
24	0x3d8dbcf2	0.06920804
25	0xbe0abd07	-0.1354867
26	0xbc53473e	-0.012895403
27	0x3de192ee	0.11014353
28	0xbc953862	-0.018215362
29	0xbdc43f98	-0.09582442
30	0xbcdcec1f	-0.02696806
31	0x3e068ef8	0.13140476
32	0xbd93761d	-0.07200263
33	0xbd65cbe3	-0.056102645
34	0xbb2d1aa5	-0.0026413586
35	0xbde46ccc	-0.11153564
36	0x3e229b9b	0.15879671
37	0xbbcf5658	-0.0063274316
38	0xbbd8cfce	-0.006616569
39	0xbd98401f	-0.07434105
40	0xbe22fccc	-0.15916747
41	0xbe7e093f	-0.24808215
42	0xbd36bab3	-0.044611644
43	0xbe466752	-0.19375351
44	0x3e19e1b1	0.150275
45	0xbdd6a89b	-0.10481378
46	0xbe39e94a	-0.18155399
47	0xbd408715	-0.047003824
48	0x3d88540e	0.06656657
49	0x3e589152	0.21149185
50	0xbce9032a	-0.028443892
51	0xbdbad660	-0.0912292
52	0x3da3f055	0.08004824
53	0xbe20a4cf	-0.1568787
54	0xbcfd84d8	-0.030947134
55	0x3cc7b07e	0.02437615
56	0x3d395743	0.045249235
57	0x3ba850f1	0.005136602
58	0xbc3884ea	-0.011262158
59	0x3de1f0dd	0.11032269
60	0x3d54ce80	0.051954746
61	0xbc6d45d3	-0.014481979
62	0xbe389659	-0.18026103
63	0xbd84ed7b	-0.06490608
64	0x3dd3c901	0.10341073
65	0x3caa3cfb	0.02078103
66	0xbe17b40c	-0.14814776
67	0x3e0be876	0.13662896
68	0xbd1fd1f2	-0.03901858
69	0x3d609714	0.05483158
70	0xbc0950ef	-0.0083811125
71	0xbc50ec41	-0.01275164
72	0x3dbd8edb	0.09255763
73	0x3e9cbdd7	0.30613586
74	0x3c2f3054	0.010692675
75	0x3dcbdfdf	0.099548094
76	0xbd3bb7ff	-0.04582977
77	0xbdea4b52	-0.114401475
78	0x3e3f4b74	0.18681127
79	0xbd79c2ca	-0.06097678
80	0x3be2abb9	0.0069174436
81	0x3e6f7062	0.23382714
82	0xbd2f9c78	-0.04287383
83	0x3bf6a931	0.0075274934
84	0xbd01be43	-0.03167559
85	0xbd374875	-0.044746835
86	0xbca729b9	-0.020405637
87	0x3d4c1504	0.04982473
88	0x3d9e9d26	0.077448174
89	0x3ddf0c98	0.10891074
90	0x3e490b93	0.19633321
91	0xbd9db2a2	-0.07700087
92	0xbdbcd42f	-0.09220158
93	0xbdb97ff4	-0.09057608
94	0x3d9487a1	0.07252432
95	0xbdba58d8	-0.09098977
96	0xbe7f8c18	-0.24955785
97	0xbe80a628	-0.25126767
98	0x3da27362	0.07932164
99	0x3de325a5	0.110911645
100	0xbdb26b3d	-0.0871186
101	0x3e6b6a79	0.22989835
102	0x3e69d086	0.22833452
103	0xbd4c57f8	-0.04988858
104	0xbdaccbd8	-0.084373176
105	0x3b6d4dae	0.003620963
106	0x3d999aba	0.07500215
107	0xbcc967d3	-0.02458564
108	0xbd157786	-0.03649094
109	0xbe2f1bf3	-0.17100506
110	0xbb9cad3e	-0.0047813943
111	0x3e9295a3	0.2862979
112	0x3e72d968	0.23715746
113	0xbe169758	-0.1470617
114	0x3e4d44b5	0.20045741
115	0x3e07a34a	0.13245884
116	0xbd60c032	-0.05487079
117	0x3dd59ff8	0.10430902
118	0x3da1d9de	0.07902883
119	0xbd8f6a4d	-0.07002697
120	0xbd47c09f	-0.048767682
121	0xbe5a8240	-0.21338749
122	0x3ca9395d	0.020657236
123	0xbdfb7eeb	-0.12280067
124	0xbe0c29a7	-0.13687764
125	0x3e2536cf	0.16134189
126	0xbde22f6d	-0.11044202
127	0xbe125119	-0.14288749
128	0x3dbf82bb	0.09351107
129	0xbdea7576	-0.11448185
130	0x3dc36d1a	0.09542294
131	0x3e27c58d	0.16383953
132	0xbd529f66	-0.051421545
133	0xbe0cc9b3	-0.13748817
134	0x3d6be1d6	0.05758842
135	0xbe8d22db	-0.27565655
136	0x3dc1c90e	0.09462176
137	0x3dbe1c80	0.0928278
138	0xbe703922	-0.23459294
139	0x3df4db33	0.119558714
140	0xbc89672a	-0.016772825
141	0xbe809bfc	-0.25119007
142	0xbd28f58c	-0.041249797
143	0x3d9a67de	0.07539342
144	0x3dfc829e	0.12329601
145	0xbdb47c55	-0.08812777
146	0x3d17e09a	0.03707943
147	0x3e4ac673	0.19802265
148	0x3d0e8911	0.034798685
149	0xbb8b6e8e	-0.0042551225
150	0x3e61e542	0.22060111
151	0xbd48f114	-0.049058035
152	0x3e97273f	0.2952213
153	0xbe70e9ac	-0.23526639
154	0x3c81596e	0.015789714
155	0x3d494412	0.049137183
156	0xbe2d2d59	-0.1691183
157	0x3e277a49	0.16355242
158	0x3decaca7	0.11556368
159	0x3e0dc6ad	0.1384532
160	0xbd96cc6e	-0.073632106
161	0x3e19be9d	0.1501412
162	0xbe08b38c	-0.13349742
163	0x3d0fa9bf	0.035073992
164	0xbc90914c	-0.017647408
165	0x3c70bd07	0.014693505
166	0x3e03f4c6	0.12886342
167	0xbe7e2d59	-0.24821986
168	0x3e86567a	0.2623785
169	0x3d9f1ae8	0.07768804
170	0xbd8af15e	-0.067843184
171	0x3c02ae3e	0.007976113
172	0x3e041d17	0.12901722
173	0x3d36a0a1	0.04458678
174	0xbe8c61a3	-0.2741824
175	0xbd366a85	-0.04453518
176	0xbdcfd26e	-0.10147558
177	0x3e03e710	0.12881112
178	0x3daf9e42	0.08575107
179	0x3d25ac30	0.040447414
180	0xb9b7ace9	-0.00035033308
181	0xbe138159	-0.14404811
182	0x3e511ef7	0.20421968
183	0xbe133d19	-0.14378776
184	0x3d4fdff7	0.0507507
185	0x3e9a2cbd	0.30112258
186	0x3d124511	0.035710398
187	0x3e082060	0.132936
188	0x3dab5c0d	0.08367167
189	0x3e49cf45	0.19707973
190	0x3e5fe1d9	0.21863498
191	0x3e22c9ce	0.15897295
192	0xbde3d659	-0.11124868
193	0x3d6ed1bd	0.05830549
194	0xbdbec33f	-0.09314584
195	0xbdf92531	-0.12165297
196	0x3d07565a	0.033041336
197	0x3d70c8ef	0.058785375
198	0xbe1673e1	-0.14692642
199	0xbe4ee471	-0.20204331
200	0x3d48f9cc	0.04906635
201	0xbe0670d5	-0.1312898
202	0xbdae8280	-0.08520985
203	0x3e5fcd3d	0.21855636
204	0xbc12163d	-0.008916435
205	0xbdecc563	-0.11561086
206	0x3e222496	0.15834269
207	0xbdc04137	-0.09387439
208	0xbd217a8e	-0.039423518
209	0xbd924834	-0.07142678
210	0xbe694706	-0.22781
211	0x3c0ef86a	0.008726219
212	0x3e0fdcbe	0.1404905
213	0x3d102e7a	0.035200574
214	0x3e0ac7e8	0.1355282
215	0x3d9141fd	0.070926644
216	0xbc92c753	-0.01791731
217	0x3ab615f0	0.0013892036
218	0x3e1540b2	0.1457546
219	0x3e0ae081	0.13562204
220	0xbd5ba4fb	-0.053624135
221	0x3cdeee00	0.027213097
222	0x3dcac7c9	0.09901387
223	0x3db2d63d	0.08732269
224	0xbdecef99	-0.11569137
225	0xbc635e81	-0.013877512
226	0xbc754156	-0.014969191
227	0x3e1b9d0d	0.15196629
228	0xbd89ba27	-0.06724959
229	0x3e489693	0.1958869
230	0xbdee9575	-0.116496004
231	0xbc5c24ad	-0.013436479
232	0xbcd234cf	-0.025659947
233	0xbd830adc	-0.06398556
234	0xbdee29e4	-0.11629084
235	0xbd562b23	-0.052287232
236	0xbcb5e840	-0.022205472
237	0xbddfb142	-0.10922481
238	0xbd19c500	-0.03754139
239	0xbe8eaeaf	-0.27867648
240	0xbbcd8c47	-0.006272826
241	0xbc8d5738	-0.017253503
242	0x3c06d4a1	0.008229406
243	0xbe0948c4	-0.13406664
244	0xbba192af	-0.004930816
245	0x3d302b54	0.04301007
246	0xbd9f699b	-0.077838145
247	0xbdcfc450	-0.101448655
248	0xbd844776	-0.064589426
249	0x3d424066	0.047424696
250	0xbcfebb1c	-0.03109508
251	0xbdfd7bc6	-0.123771235
252	0x3d1dc3bf	0.038516756
253	0x3d947a8e	0.07249938
254	0xbdee71d6	-0.11642806
255	0x3d9a9092	0.07547106

params,Dense_12,bias f4 [128]
0	0x00000000	0.0
1	0x00000000	0.0
2	0x00000000	0.0
3	0x00000000	0.0
4	0x00000000	0.0
5	0x00000000	0.0
6	0x00000000	0.0
7	0x00000000	0.0
8	0x00000000	0.0
9	0x00000000	0.0
10	0x00000000	0.0
11	0x00000000	0.0
12	0x00000000	0.0
13	0x00000000	0.0
14	0x00000000	0.0
15	0x00000000	0.0
16	0x00000000	0.0
17	0x00000000	0.0
18	0x00000000	0.0
19	0x00000000	0.0
20	0x00000000	0.0
21	0x00000000	0.0
22	0x00000000	0.0
23	0x00000000	0.0
24	0x00000000	0.0
25	0x00000000	0.0
26	0x00000000	0.0
27	0x00000000	0.0
28	0x00000000	0.0
29	0x00000000	0.0
30	0x00000000	0.0
31	0x00000000	0.0
32	0x00000000	0.0
33	0x00000000	0.0
34	0x00000000	0.0
35	0x00000000	0.0
36	0x00000000	0.0
37	0x00000000	0.0
38	0x00000000	0.0
39	0x00000000	0.0
40	0x00000000	0.0
41	0x00000000	0.0
42	0x00000000	0.0
43	0x00000000	0.0
44	0x00000000	0.0
45	0x00000000	0.0
46	0x00000000	0.0
47	0x00000000	0.0
48	0x00000000	0.0
49	0x00000000	0.0
50	0x00000000	0.0
51	0x00000000	0.0
52	0x00000000	0.0
53	0x00000000	0.0
54	0x00000000	0.0
55	0x00000000	0.0
56	0x00000000	0.0
57	0x00000000	0.0
58	0x00000000	0.0
59	0x00000000	0.0
60	0x00000000	0.0
61	0x00000000	0.0
62	0x00000000	0.0
63	0x00000000	0.0
64	0x00000000	0.0
65	0x00000000	0.0
66	0x00000000	0.0
67	0x00000000	0.0
68	0x00000000	0.0
69	0x00000000	0.0
70	0x00000000	0.0
71	0x00000000	0.0
72	0x00000000	0.0
73	0x00000000	0.0
74	0x00000000	0.0
75	0x00000000	0.0
76	0x00000000	0.0
77	0x00000000	0.0
78	0x00000000	0.0
79	0x00000000	0.0
80	0x00000000	0.0
81	0x00000000	0.0
82	0x00000000	0.0
83	0x00000000	0.0
84	0x00000000	0.0
85	0x00000000	0.0
86	0x00000000	0.0
87	0x00000000	0.0
88	0x00000000	0.0
89	0x00000000	0.0
90	0x00000000	0.0
91	0x00000000	0.0
92	0x00000000	0.0
93	0x00000000	0.0
94	0x00000000	0.0
95	0x00000000	0.0
96	0x00000000	0.0
97	0x00000000	0.0
98	0x00000000	0.0
99	0x00000000	0.0
100	0x00000000	0.0
101	0x00000000	0.0
102	0x00000000	0.0
103	0x00000000	0.0
104	0x00000000	0.0
105	0x00000000	0.0
106	0x00000000	0.0
107	0x00000000	0.0
108	0x00000000	0.0
109	0x00000000	0.0
110	0x00000000	0.0
111	0x00000000	0.0
112	0x00000000	0.0
113	0x00000000	0.0
114	0x00000000	0.0
115	0x00000000	0.0
116	0x00000000	0.0
117	0x00000000	0.0
118	0x00000000	0.0
119	0x00000000	0.0
120	0x00000000	0.0
121	0x00000000	0.0
122	0x00000000	0.0
123	0x00000000	0.0
124	0x00000000	0.0
125	0x00000000	0.0
126	0x00000000	0.0
127	0x00000000	0.0

params,Dense_12,kernel f4 [128, 128]
0	0x3e4946a6	0.19655856
1	0x3c161f76	0.009162774
2	0xbdbd1922	-0.09233309
3	0xbe510bc5	-0.20414646
4	0xbd6bea47	-0.05759647
5	0x3e86595f	0.2624006
6	0x3e162fff	0.14666747
7	0x3e00b9f5	0.12570937
8	0x3e0e8c84	0.1392079
9	0xbd62dc3a	-0.055385806
10	0xbe3b92fe	-0.18317792
11	0x3e06700e	0.13128683
12	0xbc96ca7b	-0.018407097
13	0xbe13c6ec	-0.14431351
14	0xbab8b234	-0.0014091195
15	0xbd41234f	-0.047152814
16	0xbcfbdb28	-0.03074415
17	0x3d2151a5	0.039384503
18	0xbd3082be	-0.043093435
19	0xbdbb3dc7	-0.091426425
20	0xbd4d4374	-0.050113156
21	0x3dbf0e17	0.09328859
22	0x3cb7f63d	0.022456283
23	0x3e299649	0.16561235
24	0x3cb0a667	0.021563722
25	0xbd9e7d0c	-0.077386945
26	0x3e49031b	0.19630091
27	0xbd173e73	-0.03692479
28	0x3d960bd2	0.07326473
29	0xbdc9dc73	-0.098565005
30	0xbd2b6dd2	-0.04185278
31	0xbe1ec70a	-0.15505615
32	0xbd5c6e1d	-0.05381595
33	0xbd93e9a7	-0.072223
34	0xbb89b44d	-0.0042024017
35	0xbdd9fab5	-0.10643522
36	0x3d2fd33b	0.042926054
37	0x3e07b9a3	0.13254409
38	0x3d9360b6	0.071961805
39	0x3e796f70	0.24358916
40	0x3cce1066	0.025154304
41	0xbdfa7d0f	-0.12230884
42	0xbdd332bb	-0.103124104
43	0x3c0f05b5	0.008729388
44	0xbd320b0d	-0.04346757
45	0x3df43926	0.11924963
46	0x3daeab75	0.085287966
47	0xbc5af800	-0.013364792
48	0x3d70b4b1	0.05876607
49	0xbdc2f3df	-0.09519171
50	0xbbe7931c	-0.0070670974
51	0x3d590b68	0.052989393
52	0xbe272d59	-0.16325893
53	0x3c74f5f4	0.014951218
54	0x3e071277	0.13190638
55	0x3c2f1348	0.010685749
56	0xbd9bba4d	-0.076038934
57	0xbc5da624	-0.013528381
58	0xbe62da8c	-0.22153682
59	0x3d21f439	0.03953955
60	0xbe3b7c0b	-0.18309037
61	0xbd3f59bd	-0.04671644
62	0x3d98d2d5	0.07462088
63	0xbcb2d07a	-0.021827925
64	0x3d7dfc9b	0.06200848
65	0xbe090612	-0.13381222
66	0xbd340505	-0.0439501
67	0xba2a6755	-0.0006500383
68	0x3e84ab7b	0.2591208
69	0xbe992a05	-0.2991487
70	0x3db6bbb8	0.08922523
71	0x3e193c6c	0.14964455
72	0x3de140b6	0.10998671
73	0xbe332e9b	-0.17498247
74	0xbcd713cc	-0.026254557
75	0xbc03e0e0	-0.00804922
76	0xbd498af2	-0.049204774
77	0x3d8e4bc3	0.06948044
78	0x3dac09d6	0.084003136
79	0x3e8f0f4e	0.27941364
80	0xbddf29de	-0.108966574
81	0xbd25355d	-0.040334094
82	0xbe04113c	-0.128972
83	0x3dc34659	0.09534902
84	0xbd13a4af	-0.036045726
85	0x3ae35e42	0.0017346817
86	0xbdfc0871	-0.123062976
87	0x3debdcb1	0.11516703
88	0xbe40871d	-0.18801542
89	0xbe202fe5	-0.1564327
90	0xbc72ceb1	-0.014819787
91	0x3e23170d	0.15926762
92	0xbc95cd49	-0.018286364
93	0x3e908936	0.28229684
94	0xbd18c111	-0.037293497
95	0xbd434222	-0.04767049
96	0xbd0c999f	-0.034326192
97	0xbd976e9d	-0.07394145
98	0xbe4dbd4c	-0.20091742
99	0xbdf7df8f	-0.12103187
100	0xbd87db74	-0.06633654
101	0xbe368558	-0.17824304
102	0x3c3b99b3	0.011450219
103	0x3d6fe92b	0.058571976
104	0xbe6df7b8	-0.23239028
105	0xbc84a0f7	-0.016190035
106	0x3ea593e0	0.32339382
107	0x3e118474	0.14210683
108	0xbeb6b9eb	-0.3568872
109	0xbdfa760e	-0.122295484
110	0xbdcba920	-0.099443674
111	0xbe939a86	-0.2882883
112	0x3e4d4a64	0.20047909
113	0x3de0f020	0.109833
114	0x3d9eac9e	0.07747768
115	0xbd404d9a	-0.046949007
116	0x3da676b7	0.08128112
117	0x3e1a2792	0.15054157
118	0xbdcffce7	-0.10155659
119	0xbba18e2f	-0.0049302797
120	0xba9036e6	-0.0011002689
121	0xbe01e138	-0.1268357
122	0xbc3145f2	-0.010819899
123	0xbdbad2a0	-0.09122205
124	0x3d5a7f92	0.053344317
125	0x3d649e7e	0.055815212
126	0xbc4295dc	-0.01187655
127	0x3e1cf964	0.1532951
128	0x3e600a97	0.2187904
129	0xbdead591	-0.11466516
130	0xbe80a368	-0.2512467
131	0x3cf578dc	0.029964857
132	0xbd7f9a51	-0.062403027
133	0xbe0a53ba	-0.13508502
134	0x3d1777da	0.036979534
135	0xbe3c0b52	-0.18363693
136	0x3cd5adc2	0.02608383
137	0xbd9d786e	-0.07688986
138	0x3d38776a	0.045035757
139	0xbcb01ce7	-0.021498157
140	0xbd1568de	-0.036476962
141	0x3da6363a	0.08115812
142	0xbe20dfd6	-0.15710387
143	0xbcef8d89	-0.029242294
144	0x3da06ec4	0.07833627
145	0x3bb68f39	0.0055712727
146	0xbd24d988	-0.040246516
147	0x3c5cd9c8	0.0134796575
148	0xbcada9f2	-0.0211992
149	0x3d78da0b	0.060754817
150	0x3edc3d32	0.43015438
151	0x3df0c5f6	0.11756508
152	0x3e92e854	0.28692877
153	0xbdd31886	-0.10307412
154	0xbcb4b800	-0.022060394
155	0x3bc31548	0.0059534647
156	0x3e11c88a	0.14236656
157	0x3e653dc5	0.22386844
158	0xbd4425ab	-0.047887485
159	0x3d8452ba	0.06461091
160	0x3d813a96	0.063100025
161	0xbd7751e9	-0.06038085
162	0x3e3585a3	0.1772676
163	0xbe3c49db	-0.18387549
164	0x3e86d9c5	0.2633802
165	0xbb8a885c	-0.004227681
166	0xbe9e0ccc	-0.30869138
167	0xbd3885b9	-0.045049403
168	0xbdefc9a4	-0.11708382
169	0x3e0f4857	0.13992439
170	0x3cf0339d	0.029321486
171	0xbbc399f1	-0.005969279
172	0xbdb9cc88	-0.09072214
173	0xbe9e8565	-0.30961147
174	0xbb3ef3be	-0.002913698
175	0xbd79ca02	-0.060983665
176	0x3cab2b50	0.020894676
177	0xbe19b81d	-0.1501164
178	0xbdbfc9dd	-0.09364674
179	0x3ca39048	0.01996626
180	0xbe1bf26c	-0.15229195
181	0xbd52d050	-0.051468194
182	0xbe227f25	-0.15868814
183	0xbd6de73e	-0.058081858
184	0xbd8b8449	-0.06812341
185	0x3ce792d5	0.028268257
186	0x3dd2451c	0.10267088
187	0xbce7fd2d	-0.028318966
188	0xbe0b19c8	-0.13584054
189	0xbdc316cf	-0.09525835
190	0xbd22cd62	-0.03974665
191	0xbc732dd0	-0.0148424655
192	0xbe31ea52	-0.17374542
193	0x3da8ce95	0.082425274
194	0x3ccc2c33	0.02492342
195	0xbd854c3d	-0.06508682
196	0xbdfd11a0	-0.12356877
197	0xbdaec52e	-0.08533703
198	0x3de3a447	0.11115318
199	0x3e958b0c	0.29207647
200	0xbb4756c2	-0.0030416702
201	0x3e26eebe	0.1630201
202	0x3d8d735a	0.06906767
203	0xbdc58d2f	-0.09646069
204	0xbd772f39	-0.06034777
205	0x3da6a6ac	0.08137259
206	0x3dc35e4b	0.09539469
207	0x3d4e0370	0.050296247
208	0x3d4ee995	0.05051573
209	0xbe7ea210	-0.2486651
210	0x3dda822b	0.10669359
211	0x3d226952	0.039651223
212	0x3e57458f	0.21022628
213	0xbe22fd02	-0.15916827
214	0x3e71cae1	0.23612548
215	0xbc20c774	-0.009813178
216	0x3b752d15	0.0037410904
217	0xbe2198e8	-0.15780985
218	0x3e03c979	0.12869824
219	0xbe0c8dbc	-0.13725942
220	0x3da4bbaf	0.0804361
221	0xbd5a31e9	-0.053270254
222	0xbd106e58	-0.035261482
223	0xbdd5df93	-0.10443034
224	0xbde4b17e	-0.111666664
225	0xbde96532	-0.113962546
226	0xbe1e437c	-0.15455431
227	0x3cfc81ce	0.030823614
228	0xbe024449	-0.12721361
229	0x3d8f3c66	0.06993942
230	0x3dd10bb7	0.102073126
231	0x3d7affd7	0.061279144
232	0xbe17c35a	-0.14820614
233	0xbd745d30	-0.059659183
234	0x3bf436a1	0.0074528013
235	0x3d266dda	0.040632106
236	0xbda99531	-0.08280409
237	0x3c9218f4	0.017834164
238	0x3d2bf4ab	0.04198138
239	0x3e9a9028	0.30188107
240	0xbae1f275	-0.0017238396
241	0xbe518bb4	-0.20463449
242	0x3d9e8d1c	0.07741758
243	0x3de477c7	0.11155658
244	0x3e05804f	0.13037227
245	0x3db30aff	0.08742332
246	0x3cec66a5	0.028857538
247	0x3b475841	0.0030417594
248	0x3dce1779	0.10063071
249	0xbdcdcaa0	-0.10048413
250	0x3de34acd	0.110982515
251	0xbd04fc1e	-0.032467
252	0x3d489793	0.048972677
253	0x3deaa484	0.1145716
254	0xbe15cc47	-0.14628707
255	0xbd1a1087	-0.037613418

params,Dense_13,bias f4 [128]
0	0x00000000	0.0
1	0x00000000	0.0
2	0x00000000	0.0
3	0x00000000	0.0
4	0x00000000	0.0
5	0x00000000	0.0
6	0x00000000	0.0
7	0x00000000	0.0
8	0x00000000	0.0
9	0x00000000	0.0
10	0x00000000	0.0
11	0x00000000	0.0
12	0x00000000	0.0
13	0x00000000	0.0
14	0x00000000	0.0
15	0x00000000	0.0
16	0x00000000	0.0
17	0x00000000	0.0
18	0x00000000	0.0
19	0x00000000	0.0
20	0x00000000	0.0
21	0x00000000	0.0
22	0x00000000	0.0
23	0x00000000	0.0
24	0x00000000	0.0
25	0x00000000	0.0
26	0x00000000	0.0
27	0x00000000	0.0
28	0x00000000	0.0
29	0x00000000	0.0
30	0x00000000	0.0
31	0x00000000	0.0
32	0x00000000	0.0
33	0x00000000	0.0
34	0x00000000	0.0
35	0x00000000	0.0
36	0x00000000	0.0
37	0x00000000	0.0
38	0x00000000	0.0
39	0x00000000	0.0
40	0x00000000	0.0
41	0x00000000	0.0
42	0x00000000	0.0
43	0x00000000	0.0
44	0x00000000	0.0
45	0x00000000	0.0
46	0x00000000	0.0
47	0x00000000	0.0
48	0x00000000	0.0
49	0x00000000	0.0
50	0x00000000	0.0
51	0x00000000	0.0
52	0x00000000	0.0
53	0x00000000	0.0
54	0x00000000	0.0
55	0x00000000	0.0
56	0x00000000	0.0
57	0x00000000	0.0
58	0x00000000	0.0
59	0x00000000	0.0
60	0x00000000	0.0
61	0x00000000	0.0
62	0x00000000	0.0
63	0x00000000	0.0
64	0x00000000	0.0
65	0x00000000	0.0
66	0x00000000	0.0
67	0x00000000	0.0
68	0x00000000	0.0
69	0x00000000	0.0
70	0x00000000	0.0
71	0x00000000	0.0
72	0x00000000	0.0
73	0x00000000	0.0
74	0x00000000	0.0
75	0x00000000	0.0
76	0x00000000	0.0
77	0x00000000	0.0
78	0x00000000	0.0
79	0x00000000	0.0
80	0x00000000	0.0
81	0x00000000	0.0
82	0x00000000	0.0
83	0x00000000	0.0
84	0x00000000	0.0
85	0x00000000	0.0
86	0x00000000	0.0
87	0x00000000	0.0
88	0x00000000	0.0
89	0x00000000	0.0
90	0x00000000	0.0
91	0x00000000	0.0
92	0x00000000	0.0
93	0x00000000	0.0
94	0x00000000	0.0
95	0x00000000	0.0
96	0x00000000	0.0
97	0x00000000	0.0
98	0x00000000	0.0
99	0x00000000	0.0
100	0x00000000	0.0
101	0x00000000	0.0
102	0x00000000	0.0
103	0x00000000	0.0
104	0x00000000	0.0
105	0x00000000	0.0
106	0x00000000	0.0
107	0x00000000	0.0
108	0x00000000	0.0
109	0x00000000	0.0
110	0x00000000	0.0
111	0x00000000	0.0
112	0x00000000	0.0
113	0x00000000	0.0
114	0x00000000	0.0
115	0x00000000	0.0
116	0x00000000	0.0
117	0x00000000	0.0
118	0x00000000	0.0
119	0x00000000	0.0
120	0x00000000	0.0
121	0x00000000	0.0
122	0x00000000	0.0
123	0x00000000	0.0
124	0x00000000	0.0
125	0x00000000	0.0
126	0x00000000	0.0
127	0x00000000	0.0
