baselines/IPPO/ckpt/MPE_simple_facmac_v1/selfish/IPPO.safetensors (safetensors, 432940 bytes, 32 tensors)

params,Dense_0,bias f4 [128]
000000 00 00 00 00 00 00 00 00 00 00 00 00 00 00 00 00
       0.0 0.0 0.0 0.0
000010 00 00 00 00 00 00 00 00 00 00 00 00 00 00 00 00
       0.0 0.0 0.0 0.0
000020 00 00 00 00 00 00 00 00 00 00 00 00 00 00 00 00
       0.0 0.0 0.0 0.0
000030 00 00 00 00 00 00 00 00 00 00 00 00 00 00 00 00
       0.0 0.0 0.0 0.0
000040 00 00 00 00 00 00 00 00 00 00 00 00 00 00 00 00
       0.0 0.0 0.0 0.0
000050 00 00 00 00 00 00 00 00 00 00 00 00 00 00 00 00
       0.0 0.0 0.0 0.0
000060 00 00 00 00 00 00 00 00 00 00 00 00 00 00 00 00
       0.0 0.0 0.0 0.0
000070 00 00 00 00 00 00 00 00 00 00 00 00 00 00 00 00
       0.0 0.0 0.0 0.0
000080 00 00 00 00 00 00 00 00 00 00 00 00 00 00 00 00
       0.0 0.0 0.0 0.0
000090 00 00 00 00 00 00 00 00 00 00 00 00 00 00 00 00
       0.0 0.0 0.0 0.0
0000a0 00 00 00 00 00 00 00 00 00 00 00 00 00 00 00 00
       0.0 0.0 0.0 0.0
0000b0 00 00 00 00 00 00 00 00 00 00 00 00 00 00 00 00
       0.0 0.0 0.0 0.0
0000c0 00 00 00 00 00 00 00 00 00 00 00 00 00 00 00 00
       0.0 0.0 0.0 0.0
0000d0 00 00 00 00 00 00 00 00 00 00 00 00 00 00 00 00
       0.0 0.0 0.0 0.0
0000e0 00 00 00 00 00 00 00 00 00 00 00 00 00 00 00 00
       0.0 0.0 0.0 0.0
0000f0 00 00 00 00 00 00 00 00 00 00 00 00 00 00 00 00
       0.0 0.0 0.0 0.0
000100 00 00 00 00 00 00 00 00 00 00 00 00 00 00 00 00
       0.0 0.0 0.0 0.0
000110 00 00 00 00 00 00 00 00 00 00 00 00 00 00 00 00
       0.0 0.0 0.0 0.0
000120 00 00 00 00 00 00 00 00 00 00 00 00 00 00 00 00
       0.0 0.0 0.0 0.0
000130 00 00 00 00 00 00 00 00 00 00 00 00 00 00 00 00
       0.0 0.0 0.0 0.0
000140 00 00 00 00 00 00 00 00 00 00 00 00 00 00 00 00
       0.0 0.0 0.0 0.0
000150 00 00 00 00 00 00 00 00 00 00 00 00 00 00 00 00
       0.0 0.0 0.0 0.0
000160 00 00 00 00 00 00 00 00 00 00 00 00 00 00 00 00
       0.0 0.0 0.0 0.0
000170 00 00 00 00 00 00 00 00 00 00 00 00 00 00 00 00
       0.0 0.0 0.0 0.0
000180 00 00 00 00 00 00 00 00 00 00 00 00 00 00 00 00
       0.0 0.0 0.0 0.0
000190 00 00 00 00 00 00 00 00 00 00 00 00 00 00 00 00
       0.0 0.0 0.0 0.0
0001a0 00 00 00 00 00 00 00 00 00 00 00 00 00 00 00 00
       0.0 0.0 0.0 0.0
0001b0 00 00 00 00 00 00 00 00 00 00 00 00 00 00 00 00
       0.0 0.0 0.0 0.0
0001c0 00 00 00 00 00 00 00 00 00 00 00 00 00 00 00 00
       0.0 0.0 0.0 0.0
0001d0 00 00 00 00 00 00 00 00 00 00 00 00 00 00 00 00
       0.0 0.0 0.0 0.0
0001e0 00 00 00 00 00 00 00 00 00 00 00 00 00 00 00 00
       0.0 0.0 0.0 0.0
0001f0 00 00 00 00 00 00 00 00 00 00 00 00 00 00 00 00
       0.0 0.0 0.0 0.0

params,Dense_0,kernel f4 [20, 128]
000000 69 dc ed 3d 91 76 41 be ef 12 11 bd a4 8f 8e bd
       0.116143055 -0.18892886 -0.035418447 -0.06960991
000010 ee 13 2a 3d 6f 17 ab 3d dd 4d 4d 3d 52 9b 93 3d
       0.041522913 0.08354079 0.050123084 0.072073594
000020 5a e1 8e bc 2b 1b 0b bd d8 df ca bc 6b 30 ca 3d
       -0.01744144 -0.033961456 -0.02476494 0.09872516
000030 26 97 a0 bd 8e 2f 10 3d d5 22 43 3e 29 ea 82 3d
       -0.07841329 0.0352016 0.19056256 0.06392319
000040 22 d4 69 bd c7 c5 9f 3d f9 a6 12 3e a0 8d 5e 3e
       -0.05708707 0.07801395 0.14321508 0.21733713
000050 c2 a4 05 be 85 8f 8a bd 2d 89 f8 3d fb 45 6c bd
       -0.13051131 -0.067656554 0.12135539 -0.057683926
000060 80 3c fb bc 9e ae 65 3d 18 74 27 bd 27 1f 29 3e
       -0.030668497 0.05607473 -0.0408822 0.1651579
000070 28 3b 33 be 4b 5e 36 bd ae b5 99 be 7e 92 31 be
       -0.17503035 -0.04452352 -0.30021423 -0.17341039
000080 23 73 3b be b2 f3 c3 3c 63 8e c2 bc 00 d4 7c bd
       -0.1830564 0.023919914 -0.023749536 -0.061725616
000090 6f c5 a1 bd a9 f1 18 3d e4 44 f9 bd 06 38 e0 3c
       -0.078989856 0.03733984 -0.12171343 0.027370464
0000a0 79 1d e7 3d 4e 4a a7 3e a0 b3 ed bc 8a d8 a7 3d
       0.11284918 0.32673877 -0.029016316 0.081955984
0000b0 36 9a 2e 3d ac 9b 13 3e 62 46 a9 bd 88 e7 f0 3d
       0.042627536 0.14414853 -0.082653776 0.11762911
0000c0 61 d1 53 3b 37 86 7e bd 4b c7 45 3e 88 af 16 3a
       0.0032320844 -0.062139716 0.19314305 0.0005748202
0000d0 60 99 a5 bc e5 da 29 be f6 8f c9 bd d4 f6 42 3d
       -0.020214736 -0.16587408 -0.098419115 0.047598675
0000e0 72 a2 df 3c 74 da 57 3d 5b 21 da bd 5e 9c 24 3d
       0.02729914 0.052698568 -0.10650893 0.040188186
0000f0 ec 7c 8a bc c3 de cb bd dd ca 18 be 28 a8 81 3a
       -0.01690527 -0.09954598 -0.14921136 0.0009892033
000100 42 f7 68 be 05 87 8d 3d 98 f0 de 3d 5f 21 75 bd
       -0.22750571 0.069105186 0.10885733 -0.05984628
000110 27 9c 7d 3e 5c a9 eb 3c 6e bc 11 3e 4c a3 e3 3d
       0.24766599 0.02876728 0.14232036 0.11115131
000120 76 3f 1a bd 78 d4 3a 3e 6b 6c ed bd 84 5b b7 bd
       -0.037658177 0.18245113 -0.11592945 -0.08953002
000130 06 18 12 be 6b 5b ad 3c 1f d7 b2 3d 42 47 81 3d
       -0.14266977 0.021161756 0.08732437 0.063124195
000140 43 1e a6 3d 44 36 5f 3d e7 df 0f 3d b2 5b 0d 3e
       0.08111241 0.05449511 0.03512564 0.1380451
000150 15 72 92 bd c7 84 18 3c 02 f5 81 be 65 0a 93 3c
       -0.07150666 0.009309 -0.2538224 0.017949292
000160 ea 82 26 be 23 16 63 bd d6 69 85 3d cb c5 9c be
       -0.16260877 -0.055441033 0.06514327 -0.30619654
000170 5a 5c 13 be 71 6f ef 3d a2 ba a5 3b 80 35 45 3d
       -0.14390698 0.11691178 0.0050576488 0.048146725
000180 92 4a 29 bc ff 56 6e be d6 4e 01 3c 9e ab 62 3d
       -0.01033272 -0.23275374 0.007892331 0.05533945
000190 d3 f0 5e be 56 00 28 bd 9f 37 59 3e 99 f8 c6 bd
       -0.21771555 -0.041015945 0.21212624 -0.09715385
0001a0 1e 94 78 3d 25 87 1a bd 92 4e 71 be d8 87 f4 3c
       0.06068813 -0.03772654 -0.23565128 0.029849932
0001b0 bb f8 ab 3d 16 39 83 bc 34 cb 00 3d b9 19 2d 3d
       0.08397051 -0.016018432 0.03144379 0.04226086
0001c0 28 77 5d be df dc 88 3e 21 dd 6d 3d 28 c1 c6 3d
       -0.21627486 0.2673101 0.058072213 0.097048104
0001d0 01 af 7a 3e 3b 87 0d bc 5c 27 45 be b7 c8 ff bd
       0.24480821 -0.0086381985 -0.19253296 -0.12489455
0001e0 fb 26 54 3d 4f 0b 11 3e 20 29 a6 bd 0f 5b a0 3e
       0.051794987 0.1416447 -0.08113313 0.31319472
0001f0 65 01 ee bd 08 90 05 be 98 93 b0 3d 21 d0 54 be
       -0.1162136 -0.13043225 0.08621901 -0.2078252
000200 a9 78 48 be 68 b1 bb bd 37 77 e1 bc 47 c3 50 3e
       -0.19577278 -0.09164697 -0.027522666 0.20386992
000210 29 16 d8 bd 81 0a 1c 3e c7 75 84 3b ac 33 2a 3e
       -0.10551102 0.15238382 0.0040423605 0.16621274
000220 7b 1a 29 bd 9a 50 97 bd 79 b3 ae 3d fa 07 ca 3d
       -0.04128502 -0.073884204 0.085303254 0.09864803
000230 de 07 38 3d 0e fd 2d bd 78 a1 25 3e fe a1 07 be
       0.044929378 -0.04247766 0.16174877 -0.13245389
000240 44 46 0e 3e 6f 50 4c 3e a0 c9 be bc aa b2 c7 bd
       0.13893992 0.19952558 -0.023289502 -0.09750874
000250 72 a5 8e bc cd 76 d7 bd e9 5d 9c bd 25 f6 36 be
       -0.017412875 -0.10520706 -0.076350994 -0.17867334
000260 b0 f0 4c 3c 8e 88 2c be 9b 25 eb be f0 ed 84 3d
       0.012508556 -0.16848966 -0.45927128 0.064906955
000270 df f7 29 be 60 19 b0 3d b2 b2 10 3c ae ee 34 ba
       -0.16598462 0.0859859 0.008831667 -0.0006902021
000280 c9 c8 f5 bd 12 e8 79 3d 61 0f 60 bc e1 e9 81 bd
       -0.12001187 0.061012335 -0.013675542 -0.06343437
000290 66 74 78 3c d6 f3 3e 3d 7b a3 62 3d c3 7c c1 bb
       0.01516447 0.04661926 0.05533169 -0.0059047653
0002a0 53 21 07 3e 5c 89 04 bc 8c 0f 60 bc be 9c d5 3b
       0.13196306 -0.00808939 -0.013675582 0.0065189293
0002b0 fe 0b 1c be 1b da 8c bd a2 2d 89 be 6c ec b0 bd
       -0.1523895 -0.06877538 -0.26792628 -0.08638844
0002c0 46 27 78 3d 91 50 14 3d 00 d0 f2 bd 75 9e ae 3e
       0.06058433 0.036209647 -0.11856079 0.34105268
0002d0 5e f2 ae bc c7 ca 2c 3b a0 d2 37 bb 25 62 9e 3d
       -0.021355804 0.0026365982 -0.0028049126 0.07733563
0002e0 11 7d 39 3e c6 a4 cb bd 5d c9 eb bd 2a e3 7b bd
       0.18114115 -0.099435374 -0.115130164 -0.061495937
0002f0 94 82 62 3e 0e 81 30 3e 15 95 40 be a6 f2 72 bd
       0.22120124 0.1723673 -0.1880687 -0.05931344
000300 80 ec ac bd a3 7a 8f 3d 26 59 05 be a9 df ed 3c
       -0.08443546 0.07005813 -0.13022289 0.029037314
000310 43 40 8a 3e ab b5 cf 3c 0a 22 59 3e e4 25 00 3c
       0.27002153 0.02535518 0.21204391 0.007821534
000320 53 b4 a0 ba 93 73 c8 bd a8 15 0a be 64 a5 c4 3a
       -0.0012260772 -0.09787669 -0.13484824 0.0015002904
000330 ba 57 16 3d 47 0d f9 3d 9d fd 0a be 56 83 07 3d
       0.036704756 0.121607356 -0.13573308 0.033084236
000340 b0 c4 32 3e bc 23 ad 3b 6e 20 3e be e8 bd 9c bd
       0.17457843 0.005283801 -0.18567058 -0.07653409
000350 3b 5f 59 bd b4 04 3b bd 36 df d6 3d 31 bc a6 bd
       -0.053069334 -0.045658782 0.10491793 -0.081413634
000360 bf 1f d6 3d 1c 13 83 bd df 88 15 be 4f e5 24 3e
       0.10455274 -0.06400129 -0.14602993 0.161031
000370 b8 a1 6a 3d c5 af 5a be d0 f9 24 3e 7f ee ba 3d
       0.057283133 -0.21356113 0.16110921 0.09127521
000380 fe c2 56 bd 55 df 3b 3d 2c 6c 15 3e 59 b9 81 3e
       -0.052432053 0.045867283 0.14592046 0.25336722
000390 15 ee d6 bd b6 81 09 be 39 9f 9d bd 28 8b 30 3e
       -0.10494629 -0.13428387 -0.07696385 0.17240584
0003a0 fc 22 c3 bb ab 81 15 bd 54 70 b2 bd 8c 8d 3f 3e
       -0.005955098 -0.036500614 -0.08712831 0.1870634
0003b0 99 e8 6e be df 2c d4 3d 31 03 6f 3e bd d7 1a 3e
       -0.23330916 0.10360121 0.23341061 0.1512136
0003c0 5b 66 2c 3e 89 e0 63 bd c8 94 a1 bc 1c b4 a5 3c
       0.1683592 -0.055634055 -0.019724265 0.020227484
0003d0 fc 44 30 3d 7f 5d b0 3c 2c 5a b1 3d a8 fd 0d be
       0.04303454 0.021528957 0.08659777 -0.13866293
0003e0 9a 62 4e bc b2 0c 9f 3c fa a3 6c 3d bd ab c7 bc
       -0.012596751 0.019415233 0.057773568 -0.024373883
0003f0 6a 2e e3 bc 76 63 d6 bd 0e d7 e3 bd ef 6d 26 3e
       -0.027732093 -0.104681894 -0.11125003 0.16252874

params,Dense_1,bias f4 [128]
000000 00 00 00 00 00 00 00 00 00 00 00 00 00 00 00 00
       0.0 0.0 0.0 0.0
000010 00 00 00 00 00 00 00 00 00 00 00 00 00 00 00 00
       0.0 0.0 0.0 0.0
000020 00 00 00 00 00 00 00 00 00 00 00 00 00 00 00 00
       0.0 0.0 0.0 0.0
000030 00 00 00 00 00 00 00 00 00 00 00 00 00 00 00 00
       0.0 0.0 0.0 0.0
000040 00 00 00 00 00 00 00 00 00 00 00 00 00 00 00 00
       0.0 0.0 0.0 0.0
000050 00 00 00 00 00 00 00 00 00 00 00 00 00 00 00 00
       0.0 0.0 0.0 0.0
000060 00 00 00 00 00 00 00 00 00 00 00 00 00 00 00 00
       0.0 0.0 0.0 0.0
000070 00 00 00 00 00 00 00 00 00 00 00 00 00 00 00 00
       0.0 0.0 0.0 0.0
000080 00 00 00 00 00 00 00 00 00 00 00 00 00 00 00 00
       0.0 0.0 0.0 0.0
000090 00 00 00 00 00 00 00 00 00 00 00 00 00 00 00 00
       0.0 0.0 0.0 0.0
0000a0 00 00 00 00 00 00 00 00 00 00 00 00 00 00 00 00
       0.0 0.0 0.0 0.0
0000b0 00 00 00 00 00 00 00 00 00 00 00 00 00 00 00 00
       0.0 0.0 0.0 0.0
0000c0 00 00 00 00 00 00 00 00 00 00 00 00 00 00 00 00
       0.0 0.0 0.0 0.0
0000d0 00 00 00 00 00 00 00 00 00 00 00 00 00 00 00 00
       0.0 0.0 0.0 0.0
0000e0 00 00 00 00 00 00 00 00 00 00 00 00 00 00 00 00
       0.0 0.0 0.0 0.0
0000f0 00 00 00 00 00 00 00 00 00 00 00 00 00 00 00 00
       0.0 0.0 0.0 0.0
000100 00 00 00 00 00 00 00 00 00 00 00 00 00 00 00 00
       0.0 0.0 0.0 0.0
000110 00 00 00 00 00 00 00 00 00 00 00 00 00 00 00 00
       0.0 0.0 0.0 0.0
000120 00 00 00 00 00 00 00 00 00 00 00 00 00 00 00 00
       0.0 0.0 0.0 0.0
000130 00 00 00 00 00 00 00 00 00 00 00 00 00 00 00 00
       0.0 0.0 0.0 0.0
000140 00 00 00 00 00 00 00 00 00 00 00 00 00 00 00 00
       0.0 0.0 0.0 0.0
000150 00 00 00 00 00 00 00 00 00 00 00 00 00 00 00 00
       0.0 0.0 0.0 0.0
000160 00 00 00 00 00 00 00 00 00 00 00 00 00 00 00 00
       0.0 0.0 0.0 0.0
000170 00 00 00 00 00 00 00 00 00 00 00 00 00 00 00 00
       0.0 0.0 0.0 0.0
000180 00 00 00 00 00 00 00 00 00 00 00 00 00 00 00 00
       0.0 0.0 0.0 0.0
000190 00 00 00 00 00 00 00 00 00 00 00 00 00 00 00 00
       0.0 0.0 0.0 0.0
0001a0 00 00 00 00 00 00 00 00 00 00 00 00 00 00 00 00
       0.0 0.0 0.0 0.0
0001b0 00 00 00 00 00 00 00 00 00 00 00 00 00 00 00 00
       0.0 0.0 0.0 0.0
0001c0 00 00 00 00 00 00 00 00 00 00 00 00 00 00 00 00
       0.0 0.0 0.0 0.0
0001d0 00 00 00 00 00 00 00 00 00 00 00 00 00 00 00 00
       0.0 0.0 0.0 0.0
0001e0 00 00 00 00 00 00 00 00 00 00 00 00 00 00 00 00
       0.0 0.0 0.0 0.0
0001f0 00 00 00 00 00 00 00 00 00 00 00 00 00 00 00 00
       0.0 0.0 0.0 0.0

params,Dense_1,kernel f4 [20, 128]
000000 55 f8 cd bd 05 1d 2a be f8 df 1e 3e cb da c7 bd
       -0.10057131 -0.16612633 0.15515125 -0.09758528
000010 30 10 df be 2a ce 7c bd 27 39 03 3e 56 10 7b be
       -0.43567038 -0.06172005 0.1281477 -0.2451795
000020 a1 43 f7 3d 9a 8e ef bd 22 4e 40 3e 9a 17 68 bc
       0.12073446 -0.11697121 0.18779805 -0.014165783
000030 50 54 1e 3d b0 a4 4a be 23 65 0b be 4f c3 1e be
       0.038654625 -0.19789386 -0.136128 -0.15504192
000040 0d 70 a2 3d 9e 10 e2 bc e2 6e 22 3e b4 11 fa bc
       0.07931528 -0.027595814 0.15862611 -0.03052602
000050 21 56 db 3c 31 fa e9 bc 0f 3a 71 bd 52 0f e8 bc
       0.026774468 -0.028561683 -0.05889326 -0.028327618
000060 5a 7c 4d bd 84 c7 8a 3c 67 9f 3c 3d 5c f3 76 3d
       -0.05016742 0.01694084 0.046050455 0.06029068
000070 37 e3 3f bd 8a f7 9b bc f9 aa 17 be 43 d8 47 3e
       -0.04684755 -0.019038934 -0.14811315 0.19516091
000080 1c 4e d2 3d 0f 27 7e be 27 ac f0 3c 8f c5 f9 3d
       0.102688044 -0.24819587 0.029378964 0.121958844
000090 67 2f c5 bd 14 64 8b bc c7 be 81 bd d7 07 a2 bd
       -0.09628182 -0.017015494 -0.06335216 -0.079116516
0000a0 ca a3 1c be 7a ee 27 3e 09 21 af 3d 9f b8 f7 bd
       -0.15296856 0.16399565 0.08551223 -0.120957606
0000b0 e8 96 80 bd dd fb 8a be 7a 58 dd 3d d4 7a 64 be
       -0.06278783 -0.2714528 0.10807891 -0.2231248
0000c0 af c9 c2 bc 40 50 36 bd 54 ae aa 3d 85 9b 48 3d
       -0.02377781 -0.044510126 0.08334032 0.04897644
0000d0 e6 1c 5d bd 81 0f b0 3c ab 9b 16 3d 5f cc 69 bd
       -0.053982638 0.021491768 0.03676955 -0.05707967
0000e0 a1 96 6e bd cf b9 17 3e 2b e4 d7 3d 0a 62 ee bd
       -0.05824912 0.14816974 0.105415665 -0.11639793
0000f0 19 7d e7 3d 1b 89 c4 3c d0 9a 9c 3e b1 d9 66 3e
       0.11303157 0.023991158 0.30586863 0.2254398
000100 92 96 a2 3c 5d 27 ef bc 7b 57 a2 3c de 9a f0 bc
       0.019847188 -0.029193575 0.019817105 -0.029370721
000110 da 00 8d bd 71 38 11 3e b6 86 0b be f6 8c be 3d
       -0.06884928 0.14181687 -0.13625607 0.0930423
000120 cf 58 bd 3d dd 0b bd bd fe 94 33 3c 2b be 01 3e
       0.092454545 -0.09230778 0.0109608155 0.126702
000130 8d 0c a6 3d cb 87 78 3d fc 39 fc 3a c8 a9 e8 3d
       0.081078626 0.060676377 0.0019243355 0.11360508
000140 5e 6e 52 3b 19 c8 c5 3c d5 23 2c 3d a4 f5 a5 be
       0.003210924 0.024143266 0.04202636 -0.3241397
000150 98 7a 6a 3c e1 14 f8 3d 2a a4 1a 3e f0 e5 b0 bc
       0.014311455 0.12113357 0.15101686 -0.021594018
000160 8f ea e6 bc 09 c4 1d bd 84 45 0d bc c0 98 ab bd
       -0.028188018 -0.03851703 -0.008622531 -0.08378744
000170 27 55 04 be 28 f4 25 3e ec d9 ce 3c e8 69 91 bd
       -0.12923108 0.1620642 0.025250398 -0.07100278
000180 28 ec 34 be 65 1b 75 bd e4 29 78 bd 9d c8 21 be
       -0.17668211 -0.05984058 -0.060586825 -0.15799184
000190 6c 46 13 be 93 d9 07 3d 28 6c e7 bd 9e c0 39 be
       -0.14382333 0.03316648 -0.11299926 -0.18139884
0001a0 3a a8 39 be 04 86 15 bd 30 02 1e 3d b6 74 2f 3e
       -0.1813058 -0.03650476 0.038576305 0.17134365
0001b0 b8 35 98 bd a2 7a 4f bc 9f 54 aa bb 23 eb ec bc
       -0.07432121 -0.012663515 -0.005198076 -0.028920716
0001c0 41 f1 5b bd dc f4 e6 3d 81 ec 46 3d 35 e1 0f 3e
       -0.053696875 0.11277172 0.04856539 0.14050753
0001d0 37 e6 b4 bd be 8a b7 be 1b 51 3f 3d b5 39 93 bd
       -0.088329725 -0.3584804 0.046708208 -0.07188741
0001e0 42 ef 07 3e d1 c2 34 bc d0 0f 15 3e 45 55 63 3d
       0.13274863 -0.011032776 0.14556813 0.05550124
0001f0 8f d8 51 be 0e c5 19 be 84 8e cc bd 74 77 4c be
       -0.20492767 -0.15016577 -0.0998812 -0.19967443
000200 3f 56 a4 bc 6e 39 e3 bb bb df 2b 3d 49 10 6e 3d
       -0.020060657 -0.0069343364 0.041961413 0.058121
000210 01 6d 10 3e 19 af aa bd 22 4e 01 3e 57 05 e6 bc
       0.14104082 -0.083341785 0.12627462 -0.028078718
000220 56 51 d4 3d 94 09 6a be 16 20 64 3e 57 7c 6e 3d
       0.10367076 -0.22855216 0.22277865 0.05822405
000230 10 7f a2 bd b1 58 23 be 15 11 21 3e ea fc 40 bc
       -0.079343915 -0.15951802 0.15729173 -0.011779049
000240 a7 cd 51 bc 86 9a 80 3c 80 48 b4 bd e9 83 55 3c
       -0.012805379 0.015698683 -0.08802891 0.013031938
000250 60 da 80 3d 2a 21 fb 3c e6 68 a4 3e 6d 59 a5 bd
       0.06291652 0.030655462 0.3211128 -0.08073697
000260 a8 95 2d be d8 ed eb 3d dd 6f 2a 3e 2d 61 43 3c
       -0.1695162 0.115199745 0.16644235 0.011925024
000270 dd e0 66 3c d6 17 0d be 02 bb 52 bd 3c 3a 9c 3d
       0.0140916975 -0.13778624 -0.051447876 0.07628295
000280 c7 c6 db 3d de 57 e7 3d bd aa 01 3e 28 84 d8 bd
       0.10731273 0.11296056 0.12662788 -0.10572082
000290 d4 f4 33 3c 5f 3e cd 3c 08 c3 4e be d1 ee c0 3d
       0.010983665 0.025054155 -0.20191586 0.094205506
0002a0 ea b2 a8 bd 31 15 14 be c6 ad 30 be 6f 96 b1 bd
       -0.0823725 -0.14461209 -0.1725379 -0.08671271
0002b0 17 9a 38 be 4f de 01 ba 63 49 bc bc 0c f2 17 3e
       -0.1802753 -0.0004954086 -0.022984212 0.14838427
0002c0 67 4a 92 3d ed 23 ca 3d 7a f3 59 bd e9 3c 6e be
       0.07143097 0.098701335 -0.053210713 -0.23265423
0002d0 68 2b d9 3d 65 e4 8f bc ab 37 6f 3e 7c f1 21 3e
       0.10603982 -0.017564962 0.2336108 0.15814775
0002e0 fd 78 82 bd 98 ef e6 3d d6 b3 6c 3d 4c 10 b1 bd
       -0.06370733 0.11276168 0.057788692 -0.086456865
0002f0 d5 17 97 bd 66 e0 52 3d 10 6b a3 3d ec 29 73 bd
       -0.073775925 0.051483534 0.07979405 -0.05936615
000300 f9 8e 73 bd 61 f0 66 3e 1b 7e 48 be 1c 35 2d 3e
       -0.05946252 0.22552635 -0.19579355 0.16914791
000310 8c 91 02 be e7 93 5d 3e 43 14 6e be 1e 6f 1c be
       -0.12750834 0.21638452 -0.23249917 -0.15276763
000320 2d 57 a8 3d 0b 7b b6 3d f7 d9 8f be a2 0d 62 bd
       0.082197525 0.08910187 -0.2809598 -0.055188783
000330 e6 bb a4 bd 2e 3b af bb 8f 75 81 be 09 84 81 bd
       -0.08043651 -0.005347631 -0.25285003 -0.06324012
000340 90 21 33 be 02 8f 18 bc b7 52 98 bd 89 bf c0 3d
       -0.17493272 -0.0093114395 -0.074376516 0.094115324
000350 1c 05 9d 3c 35 3a 2f bc c3 f8 c2 3d fe 81 2b 3e
       0.019167475 -0.01069503 0.09520104 0.16748807
000360 d7 98 a7 3d 87 f1 79 3c 77 84 a2 bd 3e e7 88 bd
       0.08183449 0.0152553385 -0.07935422 -0.06684731
000370 78 8b 46 be a0 cc e8 3d af b6 99 bc dd 51 80 3d
       -0.1938914 0.11367154 -0.018763868 0.06265614
000380 68 68 1a be 42 36 81 bd e5 dd 2b be e4 de a5 3d
       -0.1507889 -0.06309177 -0.16783865 0.08099154
000390 33 e8 34 be 18 a6 95 3d bf 58 de 3d ef 94 c5 3d
       -0.17666702 0.073070705 0.10856771 0.096475475
0003a0 a2 af 73 bd 56 3d 06 be d8 77 ee ba 41 bc f2 bd
       -0.05949367 -0.13109335 -0.0018193675 -0.11852313
0003b0 91 6f 6d 3e f4 71 e0 bd 70 5d 9c bd 37 7b fc 3d
       0.2318709 -0.10959235 -0.07635009 0.12328189
0003c0 b9 f5 49 bd e2 77 ad bd 90 91 01 be c4 3e b5 bd
       -0.049306605 -0.084701315 -0.12653184 -0.08849862
0003d0 00 9e 13 3e 8b e2 dd bd 87 d0 2a 3e 46 7e 43 3d
       0.14415741 -0.10834225 0.1668111 0.047727846
0003e0 a3 67 d2 bc 5f 10 51 bd a7 32 a7 be 13 be 5c be
       -0.025684183 -0.051041003 -0.32655832 -0.21556883
0003f0 1b ac 9b 3d 80 a9 28 be e9 b2 e9 3d 98 05 8b bc
       0.07601186 -0.16470909 0.114110775 -0.01697044

params,Dense_10,bias f4 [128]
000000 00 00 00 00 00 00 00 00 00 00 00 00 00 00 00 00
       0.0 0.0 0.0 0.0
000010 00 00 00 00 00 00 00 00 00 00 00 00 00 00 00 00
       0.0 0.0 0.0 0.0
000020 00 00 00 00 00 00 00 00 00 00 00 00 00 00 00 00
       0.0 0.0 0.0 0.0
000030 00 00 00 00 00 00 00 00 00 00 00 00 00 00 00 00
       0.0 0.0 0.0 0.0
000040 00 00 00 00 00 00 00 00 00 00 00 00 00 00 00 00
       0.0 0.0 0.0 0.0
000050 00 00 00 00 00 00 00 00 00 00 00 00 00 00 00 00
       0.0 0.0 0.0 0.0
000060 00 00 00 00 00 00 00 00 00 00 00 00 00 00 00 00
       0.0 0.0 0.0 0.0
000070 00 00 00 00 00 00 00 00 00 00 00 00 00 00 00 00
       0.0 0.0 0.0 0.0
000080 00 00 00 00 00 00 00 00 00 00 00 00 00 00 00 00
       0.0 0.0 0.0 0.0
000090 00 00 00 00 00 00 00 00 00 00 00 00 00 00 00 00
       0.0 0.0 0.0 0.0
0000a0 00 00 00 00 00 00 00 00 00 00 00 00 00 00 00 00
       0.0 0.0 0.0 0.0
0000b0 00 00 00 00 00 00 00 00 00 00 00 00 00 00 00 00
       0.0 0.0 0.0 0.0
0000c0 00 00 00 00 00 00 00 00 00 00 00 00 00 00 00 00
       0.0 0.0 0.0 0.0
0000d0 00 00 00 00 00 00 00 00 00 00 00 00 00 00 00 00
       0.0 0.0 0.0 0.0
0000e0 00 00 00 00 00 00 00 00 00 00 00 00 00 00 00 00
       0.0 0.0 0.0 0.0
0000f0 00 00 00 00 00 00 00 00 00 00 00 00 00 00 00 00
       0.0 0.0 0.0 0.0
000100 00 00 00 00 00 00 00 00 00 00 00 00 00 00 00 00
       0.0 0.0 0.0 0.0
000110 00 00 00 00 00 00 00 00 00 00 00 00 00 00 00 00
       0.0 0.0 0.0 0.0
000120 00 00 00 00 00 00 00 00 00 00 00 00 00 00 00 00
       0.0 0.0 0.0 0.0
000130 00 00 00 00 00 00 00 00 00 00 00 00 00 00 00 00
       0.0 0.0 0.0 0.0
000140 00 00 00 00 00 00 00 00 00 00 00 00 00 00 00 00
       0.0 0.0 0.0 0.0
000150 00 00 00 00 00 00 00 00 00 00 00 00 00 00 00 00
       0.0 0.0 0.0 0.0
000160 00 00 00 00 00 00 00 00 00 00 00 00 00 00 00 00
       0.0 0.0 0.0 0.0
000170 00 00 00 00 00 00 00 00 00 00 00 00 00 00 00 00
       0.0 0.0 0.0 0.0
000180 00 00 00 00 00 00 00 00 00 00 00 00 00 00 00 00
       0.0 0.0 0.0 0.0
000190 00 00 00 00 00 00 00 00 00 00 00 00 00 00 00 00
       0.0 0.0 0.0 0.0
0001a0 00 00 00 00 00 00 00 00 00 00 00 00 00 00 00 00
       0.0 0.0 0.0 0.0
0001b0 00 00 00 00 00 00 00 00 00 00 00 00 00 00 00 00
       0.0 0.0 0.0 0.0
0001c0 00 00 00 00 00 00 00 00 00 00 00 00 00 00 00 00
       0.0 0.0 0.0 0.0
0001d0 00 00 00 00 00 00 00 00 00 00 00 00 00 00 00 00
       0.0 0.0 0.0 0.0
0001e0 00 00 00 00 00 00 00 00 00 00 00 00 00 00 00 00
       0.0 0.0 0.0 0.0
0001f0 00 00 00 00 00 00 00 00 00 00 00 00 00 00 00 00
       0.0 0.0 0.0 0.0

params,Dense_10,kernel f4 [128, 128]
000000 cb 3e 54 bc c7 c3 c2 3d 28 20 de 3c 57 56 fd 3d
       -0.012954424 0.09509998 0.027114943 0.12369984
000010 6b f0 88 bd b1 5b c7 bc 10 2c 09 3d a3 2f 71 3e
       -0.06686481 -0.024335714 0.033489287 0.23553328
000020 de f9 56 bd 01 e9 a7 3d cf 63 57 bc 2d a2 c7 3d
       -0.052484386 0.08198739 -0.013146355 0.097477295
000030 82 e5 c1 bd 87 d3 58 bc ff fa 33 3d 30 4c 97 3d
       -0.09467603 -0.013234026 0.04394054 0.073875785
000040 bc bc 88 3e 9d ce b6 3d 0c f7 18 bd 7e 47 6f be
       0.26706493 0.08926127 -0.037344977 -0.23367116
000050 d1 97 40 3b fd cf 79 3d 88 48 ed bd 17 30 fb bc
       0.0029387365 0.06098937 -0.115861 -0.03066258
000060 5d 05 87 bd 49 26 9b bd c0 8f be bd 00 98 38 3e
       -0.0659282 -0.07575662 -0.09304762 0.18026733
000070 97 ca 23 3e 58 bb 86 bc de 50 b0 be 69 84 6f bb
       0.1599525 -0.016446754 -0.34436697 -0.0036547428
000080 ae 68 27 3c 8f cc d3 bc 6b 9c e0 3c 40 03 05 3d
       0.010217829 -0.025854377 0.027418336 0.032473803
000090 d8 ba c4 bd 3b 1c 00 bd 24 63 25 be ca b7 83 3d
       -0.0960595 -0.031276923 -0.161511 0.06431539
0000a0 ad 93 9b bd 6d 59 f1 3d 51 9c e8 3c 59 96 63 3e
       -0.07596526 0.11784635 0.02839485 0.22225322
0000b0 21 02 2f 3e c8 3a 1f be 11 24 b7 3d a2 1f 04 bd
       0.17090656 -0.15549767 0.08942426 -0.03225673
0000c0 bb 7c 40 bd 6b 71 b4 bc 76 1f 45 3c ee c7 cb 3d
       -0.046993952 -0.022026738 0.012031427 0.09950243
0000d0 aa 60 5f 3e 94 bc 74 bc 19 d3 e0 3d e1 32 22 3d
       0.21814218 -0.014937539 0.10977764 0.039599303
0000e0 f0 92 ae bd e8 e0 39 be 97 a6 c7 3d a5 03 4c 3d
       -0.0852412 -0.18152201 0.09748571 0.049808163
0000f0 49 e3 47 bd a5 cb 7d 3e c4 a2 53 3d fb 0d d7 bd
       -0.04880074 0.24784715 0.051668897 -0.105007134
000100 33 35 d2 bc 96 1b 32 bd f6 ff 85 3e 7e 0a a9 bc
       -0.025660133 -0.04348334 0.26171845 -0.020634886
000110 69 3a e0 bd ec f4 4a be f8 3b fa bc bf 12 1b 3e
       -0.10948641 -0.19819993 -0.030546173 0.1514387
000120 81 10 fb bd b3 ca b0 3c c0 3e b6 bd 58 f1 5e 3e
       -0.12259007 0.02158103 -0.08898687 0.21771753
000130 c6 0f 27 bd a3 22 b7 3c 91 b9 53 bd ee 49 16 be
       -0.040786527 0.022355383 -0.05169064 -0.1467664
000140 e4 ba 30 bd f8 ea e1 3c 7e 01 2c be 77 ca 89 bb
       -0.043146983 0.027577862 -0.16797444 -0.004205044
000150 dc b2 8e bc 59 27 87 3c f0 59 17 be 48 5c 49 be
       -0.017419271 0.016498255 -0.14780402 -0.19664109
000160 26 20 a9 ba 2a 88 67 3b 4e a9 d3 3d c5 f3 d1 3d
       -0.0012903258 0.0035328963 0.10335027 0.102515735
000170 67 53 d5 3c 2d 2b 5b be 40 86 4f 3e d1 dc 26 be
       0.026040746 -0.21403189 0.20266056 -0.16295172
000180 32 af 02 be af 25 d3 3d 79 e3 38 be 4a 35 08 3c
       -0.12762144 0.10309922 -0.18055524 0.008313486
000190 2a 56 a3 bd a3 b4 84 be 1b bf c4 3d c6 1a ae 3d
       -0.07975419 -0.25919065 0.09606763 0.085012004
0001a0 d2 6a e7 3d 38 85 32 be 0d 40 e5 bd 3a 68 29 be
       0.11299671 -0.17433631 -0.11193857 -0.16543666
0001b0 34 fc 90 be 54 a6 27 be 8c 6a 75 3e 08 af 46 be
       -0.28317416 -0.16372043 0.23966426 -0.19402707
0001c0 16 0b b4 3d d9 5e ea bc 2b bb f2 bd e4 fd cc 3d
       0.08791177 -0.02860968 -0.11852106 0.10009363
0001d0 5f 0b 65 3e 1d 18 01 be cd 30 25 be 20 9c 5a be
       0.22367619 -0.12606855 -0.16131897 -0.2134862
0001e0 9f 69 01 bd a9 73 57 be 07 00 a7 3d e2 58 c5 bd
       -0.03159487 -0.21040215 0.08154302 -0.09636094
0001f0 6c af a1 3c 66 2f b6 bc 49 3d d5 3d 23 e0 92 3c
       0.019736968 -0.022239398 0.1041208 0.017929142
000200 6f a4 97 3c 20 98 01 3e 75 2c 7e be ec 18 9c bd
       0.018511025 0.12655687 -0.24821647 -0.07621941
000210 be 52 21 bd 62 75 bf bd ca ca 98 3c f9 b5 af bc
       -0.03938555 -0.09348561 0.018651385 -0.021449076
000220 00 ce 4e 3e 95 fc ce 3e f9 60 4c 3d ff 53 d8 bd
       0.2019577 0.4042708 0.049897168 -0.10562896
000230 e5 e5 d6 bd e3 82 00 3d cd 6f 79 bc 70 93 f1 3c
       -0.10493068 0.031374823 -0.015224409 0.029489249
000240 3a 0d b7 3d 17 c9 61 3d c0 4b 21 3d 3c 8d 84 3c
       0.0893807 0.055123415 0.03937888 0.016180627
000250 5e b6 9b bd b3 82 33 3e ec 00 30 3d c7 3d b3 bd
       -0.07603143 0.17530327 0.04296963 -0.087520175
000260 ee 64 b2 3d de e0 1b 3d b2 f3 71 3d 0b 8a 14 bd
       0.08710657 0.038056247 0.059070297 -0.03626446
000270 94 2a 18 bd 8c 8f 40 be 26 52 94 bd 06 6f bc 3d
       -0.03714998 -0.18804759 -0.07242231 0.092008635
000280 d3 45 10 3e eb 28 2a 3e 81 58 80 bd 41 f6 0c be
       0.14089136 0.16617171 -0.06266881 -0.13765813
000290 7f 30 86 3e 31 43 04 3e 1c 48 82 3d aa 9d 61 3d
       0.26208875 0.12916256 0.0636141 0.055082
0002a0 76 27 ab bd 86 ba 1a be f2 88 19 3e 01 80 16 be
       -0.08357136 -0.15110216 0.14993647 -0.14697267
0002b0 82 d9 d1 3d 5d 76 3a be 09 3c 20 bd ae cc bb bd
       0.102465644 -0.18209215 -0.039119754 -0.09169899
0002c0 98 13 f7 3d 04 cd 6d bc df 06 29 3c d7 87 d2 bb
       0.12064284 -0.014514212 0.01031658 -0.006424885
0002d0 f2 c4 31 3d 8a 24 58 bd 16 85 7c 3d a4 ff 2b 3d
       0.043400712 -0.05276922 0.06165036 0.041991845
0002e0 e2 6b 73 bd c0 75 ab bc 3a 7b ee 3c 8d e7 4e be
       -0.059429057 -0.020930171 0.029111493 -0.20205517
0002f0 2c 8e 36 3e 9c b8 92 3e 5f f4 b1 3d b7 85 9d 3d
       0.17827672 0.2865647 0.08689188 0.0769152
000300 70 59 9d bd 40 f4 46 bd a5 59 28 be ba 73 19 3d
       -0.076830745 -0.04857278 -0.16440447 0.03746388
000310 d8 72 a8 bd 9a df d4 3d bf e7 3e bd 83 59 3b 3d
       -0.0822503 0.10394211 -0.04660773 0.045739662
000320 7d 1f 0b 3e 52 4f 70 3d 10 5f 4d 3c af 74 62 be
       0.1358623 0.058669396 0.012534872 -0.22114824
000330 68 24 83 bb a9 f7 64 3e 03 60 66 3b 39 cc f4 bd
       -0.0040021427 0.223601 0.0035152442 -0.11953015
000340 6f 3b 72 be cf 52 b0 3c ae 48 33 be 25 8b c6 bd
       -0.23655485 0.021523861 -0.17508194 -0.096945085
000350 e0 5d d2 bd d2 dd 0d be 2b f6 7b 3e 23 3c ba bd
       -0.102718115 -0.13854149 0.24605624 -0.090935014
000360 e1 79 b0 3b e5 e0 b9 3c 85 79 9b be aa fe 72 3e
       0.005385623 0.022690246 -0.3036615 0.23729959
000370 49 3b b9 3d 8a ed 8a 3d ad 5c 62 3d 00 7d 51 be
       0.09044511 0.06783588 0.055264164 -0.2045784
000380 05 2b d4 3c c2 f0 70 be 31 62 9d bd 84 94 00 3e
       0.02589942 -0.23529342 -0.07684744 0.12556654
000390 8b 5b 29 3e 9d 58 b8 bc 78 61 00 be 33 74 f3 bd
       0.16538827 -0.022503192 -0.12537181 -0.118873976
0003a0 cb 94 eb bd 16 6c 11 bd 22 f9 93 bb ff d4 c3 3d
       -0.115029894 -0.03550347 -0.004515783 0.0956211
0003b0 2e dd c8 3c c5 2d 8f 3e d0 43 65 3d e3 c2 2b be
       0.02451953 0.27964607 0.055972874 -0.16773562
0003c0 6c d3 14 be 91 ad da 3d 42 6e 15 bd 07 e2 66 3d
       -0.14533776 0.106776364 -0.036482103 0.0563679
0003d0 9a 12 8f 3d be 74 35 be 9f f5 35 be cc 83 43 bb
       0.0698597 -0.17720315 -0.17769478 -0.0029833196
0003e0 38 ca 02 3d c2 a1 e9 3d 52 29 95 3c ea 33 d4 bc
       0.031931132 0.11407806 0.01820818 -0.02590366
0003f0 76 f7 e4 3d 60 44 cd bd ef 8a 5d be cc 41 bd 3d
       0.11180012 -0.10022807 -0.2163503 0.092410654

params,Dense_11,bias f4 [128]
000000 00 00 00 00 00 00 00 00 00 00 00 00 00 00 00 00
       0.0 0.0 0.0 0.0
000010 00 00 00 00 00 00 00 00 00 00 00 00 00 00 00 00
       0.0 0.0 0.0 0.0
000020 00 00 00 00 00 00 00 00 00 00 00 00 00 00 00 00
       0.0 0.0 0.0 0.0
000030 00 00 00 00 00 00 00 00 00 00 00 00 00 00 00 00
       0.0 0.0 0.0 0.0
000040 00 00 00 00 00 00 00 00 00 00 00 00 00 00 00 00
       0.0 0.0 0.0 0.0
000050 00 00 00 00 00 00 00 00 00 00 00 00 00 00 00 00
       0.0 0.0 0.0 0.0
000060 00 00 00 00 00 00 00 00 00 00 00 00 00 00 00 00
       0.0 0.0 0.0 0.0
000070 00 00 00 00 00 00 00 00 00 00 00 00 00 00 00 00
       0.0 0.0 0.0 0.0
000080 00 00 00 00 00 00 00 00 00 00 00 00 00 00 00 00
       0.0 0.0 0.0 0.0
000090 00 00 00 00 00 00 00 00 00 00 00 00 00 00 00 00
       0.0 0.0 0.0 0.0
0000a0 00 00 00 00 00 00 00 00 00 00 00 00 00 00 00 00
       0.0 0.0 0.0 0.0
0000b0 00 00 00 00 00 00 00 00 00 00 00 00 00 00 00 00
       0.0 0.0 0.0 0.0
0000c0 00 00 00 00 00 00 00 00 00 00 00 00 00 00 00 00
       0.0 0.0 0.0 0.0
0000d0 00 00 00 00 00 00 00 00 00 00 00 00 00 00 00 00
       0.0 0.0 0.0 0.0
0000e0 00 00 00 00 00 00 00 00 00 00 00 00 00 00 00 00
       0.0 0.0 0.0 0.0
0000f0 00 00 00 00 00 00 00 00 00 00 00 00 00 00 00 00
       0.0 0.0 0.0 0.0
000100 00 00 00 00 00 00 00 00 00 00 00 00 00 00 00 00
       0.0 0.0 0.0 0.0
000110 00 00 00 00 00 00 00 00 00 00 00 00 00 00 00 00
       0.0 0.0 0.0 0.0
000120 00 00 00 00 00 00 00 00 00 00 00 00 00 00 00 00
       0.0 0.0 0.0 0.0
000130 00 00 00 00 00 00 00 00 00 00 00 00 00 00 00 00
       0.0 0.0 0.0 0.0
000140 00 00 00 00 00 00 00 00 00 00 00 00 00 00 00 00
       0.0 0.0 0.0 0.0
000150 00 00 00 00 00 00 00 00 00 00 00 00 00 00 00 00
       0.0 0.0 0.0 0.0
000160 00 00 00 00 00 00 00 00 00 00 00 00 00 00 00 00
       0.0 0.0 0.0 0.0
000170 00 00 00 00 00 00 00 00 00 00 00 00 00 00 00 00
       0.0 0.0 0.0 0.0
000180 00 00 00 00 00 00 00 00 00 00 00 00 00 00 00 00
       0.0 0.0 0.0 0.0
000190 00 00 00 00 00 00 00 00 00 00 00 00 00 00 00 00
       0.0 0.0 0.0 0.0
0001a0 00 00 00 00 00 00 00 00 00 00 00 00 00 00 00 00
       0.0 0.0 0.0 0.0
0001b0 00 00 00 00 00 00 00 00 00 00 00 00 00 00 00 00
       0.0 0.0 0.0 0.0
0001c0 00 00 00 00 00 00 00 00 00 00 00 00 00 00 00 00
       0.0 0.0 0.0 0.0
0001d0 00 00 00 00 00 00 00 00 00 00 00 00 00 00 00 00
       0.0 0.0 0.0 0.0
0001e0 00 00 00 00 00 00 00 00 00 00 00 00 00 00 00 00
       0.0 0.0 0.0 0.0
0001f0 00 00 00 00 00 00 00 00 00 00 00 00 00 00 00 00
       0.0 0.0 0.0 0.0

params,Dense_11,kernel f4 [128, 128]
000000 c2 f8 0d bd 71 db 13 be 12 56 eb 3d d4 dc 2c be
       -0.034661062 -0.14439179 0.11491026 -0.16881114
000010 02 b5 91 3c 4f 81 cc bd 52 17 1a 3e 23 84 19 3e
       0.017786507 -0.09985601 0.15047958 0.14991812
000020 8e 28 28 be cb 69 9a bd a4 00 89 be d2 f1 dd bc
       -0.1642172 -0.0753971 -0.267583 -0.027092848
000030 fe 76 28 be bd 3f a0 3d 2f cd 1e 3e af 36 4d be
       -0.16451642 0.07824657 0.15507959 -0.20040391
000040 15 25 6e be 8d a3 0b 3e 2d a1 a8 3d 03 68 8f 3b
       -0.23256333 0.13636608 0.08233867 0.004376413
000050 25 4e 7f bd bc b7 00 3e 18 62 6b be 25 12 b4 3d
       -0.062330384 0.12570089 -0.22986639 0.08792523
000060 f8 bc 8d 3d 07 bd 0a be 89 47 53 bc ed 92 e1 3d
       0.069208086 -0.1354867 -0.012895473 0.11014352
000070 5e 38 95 bc 95 3f c4 bd 14 ec dc bc f3 8e 06 3e
       -0.018215355 -0.0958244 -0.02696804 0.13140468
000080 23 76 93 bd ea cb 65 bd 62 1a 2d bb cd 6c e4 bd
       -0.07200267 -0.05610267 -0.002641343 -0.111535646
000090 9c 9b 22 3e a3 56 cf bb 4f cf d8 bb 16 40 98 bd
       0.15879673 -0.0063274666 -0.00661651 -0.074340984
0000a0 d3 fc 22 be 3d 09 7e be 95 ba 36 bd 54 67 46 be
       -0.15916757 -0.24808212 -0.044611532 -0.19375354
0000b0 b0 e1 19 3e a3 a8 d6 bd 46 e9 39 be 11 87 40 bd
       0.15027499 -0.10481384 -0.18155393 -0.04700381
0000c0 12 54 88 3d 57 91 58 3e 06 03 e9 bc 53 d6 ba bd
       0.0665666 0.21149193 -0.028443824 -0.0912291
0000d0 59 f0 a3 3d cc a4 20 be a2 84 fd bc 8f b0 c7 3c
       0.08004827 -0.15687865 -0.030947033 0.024376182
0000e0 4e 57 39 3d 68 51 a8 3b f1 84 38 bc d9 f0 e1 3d
       0.045249276 0.0051366575 -0.011262164 0.11032266
0000f0 6f ce 54 3d cc 45 6d bc 5c 96 38 be 80 ed 84 bd
       0.051954683 -0.014481973 -0.18026108 -0.06490612
000100 06 c9 d3 3d 30 3d aa 3c 0b b4 17 be 74 e8 0b 3e
       0.103410766 0.02078113 -0.14814775 0.13662893
000110 e6 d1 1f bd 28 97 60 3d 5b 50 09 bc d9 ea 50 bc
       -0.039018534 0.054831654 -0.008380975 -0.012751305
000120 c5 8e bd 3d d8 bd 9c 3e 83 30 2f 3c de df cb 3d
       0.09255747 0.3061359 0.010692718 0.09954809
000130 1a b8 3b bd 51 4b ea bd 71 4b 3f 3e cb c2 79 bd
       -0.04582987 -0.11440147 0.18681122 -0.060976785
000140 60 aa e2 3b 60 70 6f 3e 62 9c 2f bd a0 aa f6 3b
       0.006917283 0.23382711 -0.042873748 0.0075276643
000150 41 be 01 bd 7d 48 37 bd 65 29 a7 bc e5 14 4c 3d
       -0.03167558 -0.044746865 -0.02040548 0.049824614
000160 26 9d 9e 3d a7 0c df 3d 90 0b 49 3e 95 b2 9d bd
       0.077448174 0.10891085 0.19633317 -0.077000774
000170 2f d4 bc bd f4 7f b9 bd b7 87 94 3d cc 58 ba bd
       -0.09220158 -0.09057608 0.07252448 -0.09098968
000180 0a 8c 7f be 2f a6 80 be 65 73 a2 3d 9c 25 e3 3d
       -0.24955764 -0.25126788 0.07932166 0.11091158
000190 5b 6b b2 bd 86 6a 6b 3e 9c d0 69 3e e7 57 4c bd
       -0.08711883 0.22989854 0.22833484 -0.049888518
0001a0 cb cb ac bd eb 4f 6d 3b c4 9a 99 3d 93 67 c9 bc
       -0.08437308 0.0036210965 0.07500222 -0.02458552
0001b0 88 77 15 bd f1 1b 2f be b7 ab 9c bb a3 95 92 3e
       -0.036490947 -0.17100503 -0.004781212 0.2862979
0001c0 5e d9 72 3e 56 97 16 be b3 44 4d 3e 3b a3 07 3e
       0.23715732 -0.14706168 0.20045738 0.13245861
0001d0 dd bf 60 bd cf 9f d5 3d c8 d9 a1 3d 2d 6a 8f bd
       -0.054870475 0.10430872 0.079028666 -0.07002673
0001e0 81 c0 47 bd 39 82 5a be d2 39 a9 3c df 7e fb bd
       -0.04876757 -0.21338739 0.020657454 -0.12280058
0001f0 ae 29 0c be d1 36 25 3e 7d 2f e2 bd 13 51 12 be
       -0.13687775 0.16134192 -0.11044214 -0.1428874
000200 bb 82 bf 3d 6f 75 ea bd 17 6d c3 3d 8e c5 27 3e
       0.09351107 -0.1144818 0.095422916 0.16383955
000210 5c 9f 52 bd b6 c9 0c be cc e1 6b 3d db 22 8d be
       -0.05142151 -0.13748822 0.057588384 -0.27565655
000220 0c c9 c1 3d 78 1c be 3d 1f 39 70 be 35 db f4 3d
       0.09462175 0.09282774 -0.2345929 0.11955873
000230 5d 67 89 bc fb 9b 80 be 87 f5 28 bd d8 67 9a 3d
       -0.01677292 -0.25119004 -0.041249778 0.07539338
000240 9a 82 fc 3d 5d 7c b4 bd a1 e0 17 3d 71 c6 4a 3e
       0.12329598 -0.08812783 0.037079457 0.19802262
000250 24 89 0e 3d 33 6e 8b bb 3b e5 61 3e 1f f1 48 bd
       0.034798756 -0.00425508 0.220601 -0.049058076
000260 44 27 97 3e a4 e9 70 be 40 59 81 3c 21 44 49 3d
       0.29522145 -0.23526627 0.015789628 0.04913724
000270 52 2d 2d be 49 7a 27 3e a3 ac ec 3d b0 c6 0d 3e
       -0.1691182 0.16355242 0.11556365 0.13845325
000280 6b cc 96 bd 99 be 19 3e 8d b3 08 be ba a9 0f 3d
       -0.073632084 0.15014113 -0.13349743 0.035073973
000290 18 91 90 bc 58 bd 70 3c c7 f4 03 3e 56 2d 7e be
       -0.017647311 0.014693581 0.12886344 -0.24821982
0002a0 7c 56 86 3e e8 1a 9f 3d 62 f1 8a bd 37 ae 02 3c
       0.26237857 0.07768804 -0.06784321 0.007976106
0002b0 10 1d 04 3e ac a0 36 3d a7 61 8c be 97 6a 36 bd
       0.12901711 0.044586822 -0.27418253 -0.044535246
0002c0 81 d2 cf bd 10 e7 03 3e 40 9e af 3d 39 ac 25 3d
       -0.10147572 0.12881112 0.08575106 0.040447447
0002d0 b9 b0 b7 b9 56 81 13 be ea 1e 51 3e 17 3d 13 be
       -0.0003503615 -0.14404806 0.20421949 -0.14378773
0002e0 f3 df 4f 3d c1 2c 9a 3e 01 45 12 3d 62 20 08 3e
       0.050750684 0.3011227 0.03571034 0.13293603
0002f0 0e 5c ab 3d 44 cf 49 3e e3 e1 5f 3e c3 c9 22 3e
       0.083671674 0.19707972 0.21863513 0.15897278
000300 58 d6 e3 bd a6 d1 6e 3d 31 c3 be bd 23 25 f9 bd
       -0.11124867 0.058305405 -0.093145736 -0.121652864
000310 7b 56 07 3d 01 c9 70 3d e2 73 16 be 65 e4 4e be
       0.03304146 0.058785442 -0.14692643 -0.20204313
000320 c6 f9 48 3d d8 70 06 be 82 82 ae bd 4a cd 5f 3e
       0.049066328 -0.13128984 -0.08520986 0.21855655
000330 e8 15 12 bc 5d c5 ec bd 95 24 22 3e 24 41 c0 bd
       -0.008916356 -0.115610816 0.15834267 -0.093874246
000340 cf 7a 21 bd 35 48 92 bd 04 47 69 be cf f8 0e 3c
       -0.03942376 -0.07142679 -0.22780997 0.008726313
000350 c3 dc 0f 3e 65 2e 10 3d e9 c7 0a 3e 10 42 91 3d
       0.14049058 0.035200495 0.13552822 0.070926785
000360 80 c7 92 bc 35 15 b6 3a b7 40 15 3e 83 e0 0a 3e
       -0.017917395 0.0013891818 0.14575468 0.13562207
000370 0e a5 5b bd b5 ee de 3c c8 c7 ca 3d 4f d6 b2 3d
       -0.053624205 0.027213434 0.099013865 0.08732282
000380 7f ef ec bd ba 5e 63 bc 3d 41 75 bc 10 9d 1b 3e
       -0.11569118 -0.013877565 -0.014969167 0.15196633
000390 49 ba 89 bd 89 96 48 3e 7b 95 ee bd f6 24 5c bc
       -0.06724984 0.19588675 -0.11649605 -0.013436547
0003a0 ae 34 d2 bc dc 0a 83 bd e6 29 ee bd 38 2b 56 bd
       -0.025659885 -0.06398556 -0.11629085 -0.05228731
0003b0 55 e8 b5 bc 5a b1 df bd fc c4 19 bd b2 ae 8e be
       -0.022205511 -0.10922499 -0.037541375 -0.27867657
0003c0 b1 8b cd bb d3 56 8d bc 12 d5 06 3c bf 48 09 be
       -0.006272756 -0.017253315 0.008229511 -0.13406657
0003d0 38 92 a1 bb 81 2b 30 3d a1 69 9f bd 51 c4 cf bd
       -0.0049307607 0.04301024 -0.07783819 -0.10144866
0003e0 d2 47 84 bd a9 40 42 3d 16 bb fe bc e2 7b fd bd
       -0.06459011 0.047424946 -0.031095069 -0.123771444
0003f0 c5 c3 1d 3d 44 7a 94 3d eb 71 ee bd 5e 90 9a 3d
       0.03851678 0.07249883 -0.11642822 0.07547067

params,Dense_12,bias f4 [128]
000000 00 00 00 00 00 00 00 00 00 00 00 00 00 00 00 00
       0.0 0.0 0.0 0.0
000010 00 00 00 00 00 00 00 00 00 00 00 00 00 00 00 00
       0.0 0.0 0.0 0.0
000020 00 00 00 00 00 00 00 00 00 00 00 00 00 00 00 00
       0.0 0.0 0.0 0.0
000030 00 00 00 00 00 00 00 00 00 00 00 00 00 00 00 00
       0.0 0.0 0.0 0.0
000040 00 00 00 00 00 00 00 00 00 00 00 00 00 00 00 00
       0.0 0.0 0.0 0.0
000050 00 00 00 00 00 00 00 00 00 00 00 00 00 00 00 00
       0.0 0.0 0.0 0.0
000060 00 00 00 00 00 00 00 00 00 00 00 00 00 00 00 00
       0.0 0.0 0.0 0.0
000070 00 00 00 00 00 00 00 00 00 00 00 00 00 00 00 00
       0.0 0.0 0.0 0.0
000080 00 00 00 00 00 00 00 00 00 00 00 00 00 00 00 00
       0.0 0.0 0.0 0.0
000090 00 00 00 00 00 00 00 00 00 00 00 00 00 00 00 00
       0.0 0.0 0.0 0.0
0000a0 00 00 00 00 00 00 00 00 00 00 00 00 00 00 00 00
       0.0 0.0 0.0 0.0
0000b0 00 00 00 00 00 00 00 00 00 00 00 00 00 00 00 00
       0.0 0.0 0.0 0.0
0000c0 00 00 00 00 00 00 00 00 00 00 00 00 00 00 00 00
       0.0 0.0 0.0 0.0
0000d0 00 00 00 00 00 00 00 00 00 00 00 00 00 00 00 00
       0.0 0.0 0.0 0.0
0000e0 00 00 00 00 00 00 00 00 00 00 00 00 00 00 00 00
       0.0 0.0 0.0 0.0
0000f0 00 00 00 00 00 00 00 00 00 00 00 00 00 00 00 00
       0.0 0.0 0.0 0.0
000100 00 00 00 00 00 00 00 00 00 00 00 00 00 00 00 00
       0.0 0.0 0.0 0.0
000110 00 00 00 00 00 00 00 00 00 00 00 00 00 00 00 00
       0.0 0.0 0.0 0.0
000120 00 00 00 00 00 00 00 00 00 00 00 00 00 00 00 00
       0.0 0.0 0.0 0.0
000130 00 00 00 00 00 00 00 00 00 00 00 00 00 00 00 00
       0.0 0.0 0.0 0.0
000140 00 00 00 00 00 00 00 00 00 00 00 00 00 00 00 00
       0.0 0.0 0.0 0.0
000150 00 00 00 00 00 00 00 00 00 00 00 00 00 00 00 00
       0.0 0.0 0.0 0.0
000160 00 00 00 00 00 00 00 00 00 00 00 00 00 00 00 00
       0.0 0.0 0.0 0.0
000170 00 00 00 00 00 00 00 00 00 00 00 00 00 00 00 00
       0.0 0.0 0.0 0.0
000180 00 00 00 00 00 00 00 00 00 00 00 00 00 00 00 00
       0.0 0.0 0.0 0.0
000190 00 00 00 00 00 00 00 00 00 00 00 00 00 00 00 00
       0.0 0.0 0.0 0.0
0001a0 00 00 00 00 00 00 00 00 00 00 00 00 00 00 00 00
       0.0 0.0 0.0 0.0
0001b0 00 00 00 00 00 00 00 00 00 00 00 00 00 00 00 00
       0.0 0.0 0.0 0.0
0001c0 00 00 00 00 00 00 00 00 00 00 00 00 00 00 00 00
       0.0 0.0 0.0 0.0
0001d0 00 00 00 00 00 00 00 00 00 00 00 00 00 00 00 00
       0.0 0.0 0.0 0.0
0001e0 00 00 00 00 00 00 00 00 00 00 00 00 00 00 00 00
       0.0 0.0 0.0 0.0
0001f0 00 00 00 00 00 00 00 00 00 00 00 00 00 00 00 00
       0.0 0.0 0.0 0.0

params,Dense_12,kernel f4 [128, 128]
000000 a6 46 49 3e 57 1f 16 3c 1c 19 bd bd c9 0b 51 be
       0.19655856 0.009162745 -0.09233305 -0.20414652
000010 52 ea 6b bd 60 59 86 3e 03 30 16 3e f7 b9 00 3e
       -0.057596512 0.26240063 0.14666753 0.1257094
000020 85 8c 0e 3e 2e dc 62 bd fc 92 3b be 09 70 06 3e
       0.13920791 -0.05538576 -0.18317789 0.13128676
000030 81 ca 96 bc e6 c6 13 be 78 b3 b8 ba 50 23 41 bd
       -0.018407108 -0.14431342 -0.0014091572 -0.047152817
000040 3e db fb bc a5 51 21 3d c5 82 30 bd c7 3d bb bd
       -0.030744191 0.039384503 -0.04309346 -0.091426425
000050 76 43 4d bd 17 0e bf 3d 3d f6 b7 3c 4b 96 29 3e
       -0.050113164 0.09328859 0.022456283 0.16561238
000060 49 a6 b0 3c 10 7d 9e bd 19 03 49 3e 73 3e 17 bd
       0.021563666 -0.077386975 0.19630088 -0.03692479
000070 de 0b 96 3d 7b dc c9 bd cc 6d 2b bd 0a c7 1e be
       0.07326482 -0.098565064 -0.041852757 -0.15505615
000080 29 6e 5c bd a6 e9 93 bd d6 b3 89 bb b3 fa d9 bd
       -0.053815994 -0.07222299 -0.0042023463 -0.1064352
000090 46 d3 2f 3d a1 b9 07 3e b7 60 93 3d 6d 6f 79 3e
       0.042926095 0.13254406 0.07196181 0.24358912
0000a0 5d 10 ce 3c 07 7d fa bd c8 32 d3 bd 59 05 0f 3c
       0.025154287 -0.12230878 -0.1031242 0.008729302
0000b0 20 0b 32 bd 30 39 f4 3d 6d ab ae 3d fa f7 5a bc
       -0.04346764 0.1192497 0.085287906 -0.013364786
0000c0 b3 b4 70 3d dc f3 c2 bd a8 93 e7 bb 47 0b 59 3d
       0.05876608 -0.09519169 -0.0070671625 0.05298927
0000d0 58 2d 27 be da f5 74 3c 77 12 07 3e 6f 13 2f 3c
       -0.16325891 0.014951194 0.13190638 0.010685786
0000e0 4c ba 9b bd f6 a5 5d bc 89 da 62 be 4f f4 21 3d
       -0.07603893 -0.013528338 -0.22153677 0.03953963
0000f0 11 7c 3b be c8 59 3f bd d1 d2 98 3d 5a d0 b2 bc
       -0.18309046 -0.04671648 0.07462085 -0.021827865
000100 9a fc 7d 3d 0e 06 09 be f2 04 34 bd 8c 6d 2a ba
       0.062008478 -0.13381216 -0.04395003 -0.0006501309
000110 76 ab 84 3e 04 2a 99 be c2 bb b6 3d 65 3c 19 3e
       0.25912064 -0.29914868 0.08922531 0.14964445
000120 b9 40 e1 3d 95 2e 33 be a3 13 d7 bc 8c e0 03 bc
       0.10998673 -0.17498238 -0.02625448 -0.008049142
000130 cf 8a 49 bd b0 4b 8e 3d dc 09 ac 3d 56 0f 8f 3e
       -0.049204644 0.0694803 0.08400318 0.27941388
000140 e0 29 df bd 54 35 25 bd 3f 11 04 be 6d 46 c3 3d
       -0.10896659 -0.04033406 -0.12897204 0.09534917
000150 bf a4 13 bd 4e 57 e3 3a 82 08 fc bd ad dc eb 3d
       -0.036045786 0.0017344744 -0.1230631 0.115167
000160 18 87 40 be e5 2f 20 be 06 ce 72 bc 01 17 23 3e
       -0.18801534 -0.1564327 -0.014819628 0.15926744
000170 95 cd 95 bc 34 89 90 3e 37 c1 18 bd 62 42 43 bd
       -0.018286506 0.28229678 -0.03729364 -0.04767073
000180 86 99 0c bd 84 6e 97 bd 4a bd 4d be 9d df f7 bd
       -0.0343261 -0.07394126 -0.2009174 -0.12103198
000190 77 db 87 bd 62 85 36 be fc 99 3b 3c 2c e9 6f 3d
       -0.066336565 -0.17824319 0.011450287 0.05857198
0001a0 a7 f7 6d be f5 a0 84 bc e5 93 a5 3e 67 84 11 3e
       -0.23239003 -0.016190032 0.32339397 0.14210664
0001b0 f1 b9 b6 be e4 75 fa bd 26 a9 cb bd 87 9a 93 be
       -0.35688737 -0.12229517 -0.09944372 -0.28828833
0001c0 64 4a 4d 3e 2e f0 e0 3d 8b ac 9e 3d 19 4e 40 bd
       0.20047909 0.10983311 0.07747754 -0.04694948
0001d0 92 76 a6 3d 9b 27 1a 3e ee fc cf bd bc 8f a1 bb
       0.08128084 0.15054171 -0.101556644 -0.0049304646
0001e0 2a 38 90 ba 47 e1 01 be 33 46 31 bc c8 d2 ba bd
       -0.0011003066 -0.12683593 -0.010819959 -0.091222346
0001f0 87 7f 5a 3d 52 9e 64 3d 22 91 42 bc 7c f9 1c 3e
       0.053344276 0.05581505 -0.011875423 0.15329546
000200 97 0a 60 3e 99 d5 ea bd 69 a3 80 be e8 78 f5 3c
       0.2187904 -0.11466522 -0.25124672 0.02996488
000210 4d 9a 7f bd ba 53 0a be db 77 17 3d 53 0b 3c be
       -0.062403012 -0.13508502 0.036979537 -0.18363695
000220 b4 ad d5 3c 79 78 9d bd 65 77 38 3d c8 1c b0 bc
       0.026083805 -0.07688994 0.04503574 -0.021498099
000230 e6 68 15 bd 33 36 a6 3d d4 df 20 be 92 8d ef bc
       -0.036476992 0.081158064 -0.15710384 -0.02924231
000240 bc 6e a0 3d 07 8f b6 3b 89 d9 24 bd 0f da 5c 3c
       0.07833621 0.0055712494 -0.04024652 0.013479724
000250 11 aa ad bc 08 da 78 3d 30 3d dc 3e e8 c5 f0 3d
       -0.021199258 0.060754806 0.43015432 0.117564976
000260 56 e8 92 3e 86 18 d3 bd 1b b8 b4 bc ff 14 c3 3b
       0.28692883 -0.10307412 -0.022060445 0.0059534307
000270 8e c8 11 3e c3 3d 65 3e bd 25 44 bd b4 52 84 3d
       0.14236662 0.22386841 -0.047887553 0.06461087
000280 96 3a 81 3d ea 51 77 bd aa 85 35 3e db 49 3c be
       0.063100025 -0.060380854 0.1772677 -0.18387549
000290 c7 d9 86 3e a4 88 8a bb c5 0c 9e be ce 85 38 bd
       0.26338026 -0.0042277146 -0.30869117 -0.04504948
0002a0 90 c9 ef bd 59 48 0f 3e 77 33 f0 3c ce 99 c3 bb
       -0.11708367 0.13992442 0.029321415 -0.0059692627
0002b0 82 cc b9 bd 60 85 9e be 4d f4 3e bb fe c9 79 bd
       -0.0907221 -0.30961132 -0.0029137314 -0.06098365
0002c0 37 2b ab 3c 18 b8 19 be d5 c9 bf bd 40 90 a3 3c
       0.02089463 -0.15011632 -0.09364668 0.019966245
0002d0 63 f2 1b be 50 d0 52 bd 25 7f 22 be 46 e7 6d bd
       -0.15229182 -0.051468194 -0.15868814 -0.058081888
0002e0 48 84 8b bd a5 92 e7 3c 18 45 d2 3d 19 fd e7 bc
       -0.0681234 0.028268168 0.10267085 -0.028318929
0002f0 c4 19 0b be c3 16 c3 bd 7a cd 22 bd 48 2e 73 bc
       -0.13584048 -0.09525826 -0.03974674 -0.014842577
000300 57 ea 31 be a7 ce a8 3d 37 2c cc 3c 45 4c 85 bd
       -0.1737455 0.08242541 0.024923427 -0.06508688
000310 b9 11 fd bd 3a c5 ae bd 53 a4 e3 3d 04 8b 95 3e
       -0.12356896 -0.08533712 0.11115327 0.29207623
000320 f3 55 47 bb cc ee 26 3e 5d 73 8d 3d 19 8d c5 bd
       -0.003041622 0.16302031 0.069067694 -0.09646053
000330 05 2f 77 bd a8 a6 a6 3d 45 5e c3 3d 6a 03 4e 3d
       -0.060347576 0.08137256 0.09539465 0.050296225
000340 6a e9 4e 3d 11 a2 7e be 36 82 da 3d 6d 69 22 3d
       0.05051557 -0.24866511 0.10669367 0.039651323
000350 95 45 57 3e ff fc 22 be de ca 71 3e 0e c8 20 bc
       0.21022637 -0.15916823 0.23612544 -0.009813322
000360 4d 2c 75 3b e5 98 21 be 75 c9 03 3e b1 8d 0c be
       0.0037410439 -0.15780981 0.12869819 -0.13725926
000370 b4 bb a4 3d d5 31 5a bd 4f 6e 10 bd 8f df d5 bd
       0.08043614 -0.05327018 -0.03526145 -0.10443031
000380 6a b1 e4 bd 35 65 e9 bd 82 43 1e be d3 81 fc 3c
       -0.111666515 -0.11396257 -0.1545544 0.030823624
000390 47 44 02 be 89 3c 8f 3d b5 0b d1 3d d2 ff 7a 3d
       -0.12721358 0.06993968 0.10207311 0.061279126
0003a0 4f c3 17 be 8e 5d 74 bd 0e 39 f4 3b b9 6d 26 3d
       -0.14820598 -0.059659533 0.0074530905 0.040631983
0003b0 54 95 a9 bd 3e 19 92 3c db f4 2b 3d 27 90 9a 3e
       -0.08280435 0.017834302 0.04198156 0.30188105
0003c0 1a f3 e1 ba be 8b 51 be 28 8d 9e 3d 9a 77 e4 3d
       -0.0017238588 -0.20463464 0.07741767 0.11155625
0003d0 2b 80 05 3e 02 0b b3 3d 32 66 ec 3c 36 58 47 3b
       0.13037173 0.08742334 0.028857324 0.0030417568
0003e0 b9 17 ce 3d 65 ca cd bd bc 4a e3 3d 8d fc 04 bd
       0.100631185 -0.10048369 0.11098239 -0.032467414
0003f0 55 98 48 3d be a4 ea 3d 3d cc 15 be be 0f 1a bd
       0.0489734 0.11457203 -0.14628692 -0.03761267

params,Dense_13,bias f4 [128]
000000 00 00 00 00 00 00 00 00 00 00 00 00 00 00 00 00
       0.0 0.0 0.0 0.0
000010 00 00 00 00 00 00 00 00 00 00 00 00 00 00 00 00
       0.0 0.0 0.0 0.0
000020 00 00 00 00 00 00 00 00 00 00 00 00 00 00 00 00
       0.0 0.0 0.0 0.0
000030 00 00 00 00 00 00 00 00 00 00 00 00 00 00 00 00
       0.0 0.0 0.0 0.0
000040 00 00 00 00 00 00 00 00 00 00 00 00 00 00 00 00
       0.0 0.0 0.0 0.0
000050 00 00 00 00 00 00 00 00 00 00 00 00 00 00 00 00
       0.0 0.0 0.0 0.0
000060 00 00 00 00 00 00 00 00 00 00 00 00 00 00 00 00
       0.0 0.0 0.0 0.0
000070 00 00 00 00 00 00 00 00 00 00 00 00 00 00 00 00
       0.0 0.0 0.0 0.0
000080 00 00 00 00 00 00 00 00 00 00 00 00 00 00 00 00
       0.0 0.0 0.0 0.0
000090 00 00 00 00 00 00 00 00 00 00 00 00 00 00 00 00
       0.0 0.0 0.0 0.0
0000a0 00 00 00 00 00 00 00 00 00 00 00 00 00 00 00 00
       0.0 0.0 0.0 0.0
0000b0 00 00 00 00 00 00 00 00 00 00 00 00 00 00 00 00
       0.0 0.0 0.0 0.0
0000c0 00 00 00 00 00 00 00 00 00 00 00 00 00 00 00 00
       0.0 0.0 0.0 0.0
0000d0 00 00 00 00 00 00 00 00 00 00 00 00 00 00 00 00
       0.0 0.0 0.0 0.0
0000e0 00 00 00 00 00 00 00 00 00 00 00 00 00 00 00 00
       0.0 0.0 0.0 0.0
0000f0 00 00 00 00 00 00 00 00 00 00 00 00 00 00 00 00
       0.0 0.0 0.0 0.0
000100 00 00 00 00 00 00 00 00 00 00 00 00 00 00 00 00
       0.0 0.0 0.0 0.0
000110 00 00 00 00 00 00 00 00 00 00 00 00 00 00 00 00
       0.0 0.0 0.0 0.0
000120 00 00 00 00 00 00 00 00 00 00 00 00 00 00 00 00
       0.0 0.0 0.0 0.0
000130 00 00 00 00 00 00 00 00 00 00 00 00 00 00 00 00
       0.0 0.0 0.0 0.0
000140 00 00 00 00 00 00 00 00 00 00 00 00 00 00 00 00
       0.0 0.0 0.0 0.0
000150 00 00 00 00 00 00 00 00 00 00 00 00 00 00 00 00
       0.0 0.0 0.0 0.0
000160 00 00 00 00 00 00 00 00 00 00 00 00 00 00 00 00
       0.0 0.0 0.0 0.0
000170 00 00 00 00 00 00 00 00 00 00 00 00 00 00 00 00
       0.0 0.0 0.0 0.0
000180 00 00 00 00 00 00 00 00 00 00 00 00 00 00 00 00
       0.0 0.0 0.0 0.0
000190 00 00 00 00 00 00 00 00 00 00 00 00 00 00 00 00
       0.0 0.0 0.0 0.0
0001a0 00 00 00 00 00 00 00 00 00 00 00 00 00 00 00 00
       0.0 0.0 0.0 0.0
0001b0 00 00 00 00 00 00 00 00 00 00 00 00 00 00 00 00
       0.0 0.0 0.0 0.0
0001c0 00 00 00 00 00 00 00 00 00 00 00 00 00 00 00 00
       0.0 0.0 0.0 0.0
0001d0 00 00 00 00 00 00 00 00 00 00 00 00 00 00 00 00
       0.0 0.0 0.0 0.0
0001e0 00 00 00 00 00 00 00 00 00 00 00 00 00 00 00 00
       0.0 0.0 0.0 0.0
0001f0 00 00 00 00 00 00 00 00 00 00 00 00 00 00 00 00
       0.0 0.0 0.0 0.0
