baselines/IPPO/ckpt/MPE_simple_facmac_v1/br-prosocial/IPPO.safetensors (safetensors, 432940 bytes, 32 tensors)

params,Dense_0,bias f4 [128]
000000 00 00 00 00 00 00 00 00 00 00 00 00 00 00 00 00
       0.0 0.0 0.0 0.0
000010 00 00 00 00 00 00 00 00 00 00 00 00 00 00 00 00
       0.0 0.0 0.0 0.0
000020 00 00 00 00 00 00 00 00 00 00 00 00 00 00 00 00
       0.0 0.0 0.0 0.0
000030 00 00 00 00 00 00 00 00 00 00 00 00 00 00 00 00
       0.0 0.0 0.0 0.0
000040 00 00 00 00 00 00 00 00 00 00 00 00 00 00 00 00
       0.0 0.0 0.0 0.0
000050 00 00 00 00 00 00 00 00 00 00 00 00 00 00 00 00
       0.0 0.0 0.0 0.0
000060 00 00 00 00 00 00 00 00 00 00 00 00 00 00 00 00
       0.0 0.0 0.0 0.0
000070 00 00 00 00 00 00 00 00 00 00 00 00 00 00 00 00
       0.0 0.0 0.0 0.0
000080 00 00 00 00 00 00 00 00 00 00 00 00 00 00 00 00
       0.0 0.0 0.0 0.0
000090 00 00 00 00 00 00 00 00 00 00 00 00 00 00 00 00
       0.0 0.0 0.0 0.0
0000a0 00 00 00 00 00 00 00 00 00 00 00 00 00 00 00 00
       0.0 0.0 0.0 0.0
0000b0 00 00 00 00 00 00 00 00 00 00 00 00 00 00 00 00
       0.0 0.0 0.0 0.0
0000c0 00 00 00 00 00 00 00 00 00 00 00 00 00 00 00 00
       0.0 0.0 0.0 0.0
0000d0 00 00 00 00 00 00 00 00 00 00 00 00 00 00 00 00
       0.0 0.0 0.0 0.0
0000e0 00 00 00 00 00 00 00 00 00 00 00 00 00 00 00 00
       0.0 0.0 0.0 0.0
0000f0 00 00 00 00 00 00 00 00 00 00 00 00 00 00 00 00
       0.0 0.0 0.0 0.0
000100 00 00 00 00 00 00 00 00 00 00 00 00 00 00 00 00
       0.0 0.0 0.0 0.0
000110 00 00 00 00 00 00 00 00 00 00 00 00 00 00 00 00
       0.0 0.0 0.0 0.0
000120 00 00 00 00 00 00 00 00 00 00 00 00 00 00 00 00
       0.0 0.0 0.0 0.0
000130 00 00 00 00 00 00 00 00 00 00 00 00 00 00 00 00
       0.0 0.0 0.0 0.0
000140 00 00 00 00 00 00 00 00 00 00 00 00 00 00 00 00
       0.0 0.0 0.0 0.0
000150 00 00 00 00 00 00 00 00 00 00 00 00 00 00 00 00
       0.0 0.0 0.0 0.0
000160 00 00 00 00 00 00 00 00 00 00 00 00 00 00 00 00
       0.0 0.0 0.0 0.0
000170 00 00 00 00 00 00 00 00 00 00 00 00 00 00 00 00
       0.0 0.0 0.0 0.0
000180 00 00 00 00 00 00 00 00 00 00 00 00 00 00 00 00
       0.0 0.0 0.0 0.0
000190 00 00 00 00 00 00 00 00 00 00 00 00 00 00 00 00
       0.0 0.0 0.0 0.0
0001a0 00 00 00 00 00 00 00 00 00 00 00 00 00 00 00 00
       0.0 0.0 0.0 0.0
0001b0 00 00 00 00 00 00 00 00 00 00 00 00 00 00 00 00
       0.0 0.0 0.0 0.0
0001c0 00 00 00 00 00 00 00 00 00 00 00 00 00 00 00 00
       0.0 0.0 0.0 0.0
0001d0 00 00 00 00 00 00 00 00 00 00 00 00 00 00 00 00
       0.0 0.0 0.0 0.0
0001e0 00 00 00 00 00 00 00 00 00 00 00 00 00 00 00 00
       0.0 0.0 0.0 0.0
0001f0 00 00 00 00 00 00 00 00 00 00 00 00 00 00 00 00
       0.0 0.0 0.0 0.0

params,Dense_0,kernel f4 [20, 128]
000000 35 1c 11 be 2d 03 03 3e 0e 46 97 3d 16 63 bc be
       -0.14170916 0.1279418 0.07386409 -0.36794347
000010 fd 85 0c 3b 49 9c 02 3e 8f ae 6f be 66 16 0e be
       0.0021442168 0.1275493 -0.23406433 -0.13875732
000020 83 da 75 bd 05 64 ea bd 15 d4 0a 3e 57 03 99 3d
       -0.060022842 -0.114448585 0.13557465 0.0747134
000030 a2 88 4b 3e 2e 01 94 bd 20 bb a4 3c e9 92 81 bd
       0.1987634 -0.072267875 0.02010876 -0.06326849
000040 6f 24 02 3e 75 3c 07 3e c6 74 0b 3e 61 bf 87 bd
       0.12709211 0.13206656 0.13618764 -0.066282995
000050 85 f4 2a 3e 7c 7b a0 bd 33 b7 71 3d e2 a5 5c bd
       0.1669484 -0.07836053 0.059012603 -0.053869136
000060 4c 7f 0f be b7 e5 12 be 71 c4 ab bd ce a2 91 bd
       -0.14013404 -0.14345442 -0.083870776 -0.07111131
000070 83 cc 42 be 45 e1 78 3e 1c c5 f3 3d bd 0d 87 3e
       -0.19023328 0.24304684 0.1190283 0.2637767
000080 13 31 01 3d 22 80 66 bc 17 0a ad 3d 61 f1 ad 3d
       0.03154094 -0.014068635 0.0844919 0.08493305
000090 30 49 3a 3e b2 61 a3 bc 38 4e f1 3d 09 a3 f8 bd
       0.18191981 -0.019944046 0.11782497 -0.121404715
0000a0 41 7c b8 bb bb 81 26 3e c7 ad f5 3d 5b a7 87 be
       -0.0056300466 0.16260426 0.11996036 -0.2649487
0000b0 6a 4e ce bd f6 f0 aa bc 1f 8b 6b 3e 90 0f 8e bc
       -0.1007355 -0.020866852 0.23002289 -0.017341405
0000c0 76 84 28 bd a2 3c 45 3e 20 72 10 3e 68 6d 90 bd
       -0.04114195 0.19261411 0.14106035 -0.070521176
0000d0 43 55 01 3e c5 14 ed 3d ae f8 7e 3b ca 42 c8 bd
       0.12630181 0.11576227 0.003890555 -0.09778364
0000e0 04 88 1e 3d de 3d a3 bd 1c 62 1a be 4f 1c ea 3c
       0.038703933 -0.079707846 -0.15076488 0.028577952
0000f0 f3 63 b1 3d 04 dd 0b be 9c a6 19 3e e8 67 32 bc
       0.08661642 -0.1365853 0.15004963 -0.010889031
000100 33 5e dd 3a 1f ef 8b bc 9d e2 ae 3e 2e 0c 42 be
       0.0016889035 -0.017081795 0.34157267 -0.18949959
000110 ec ca b3 bd 93 05 b4 bd e1 91 3c 3c bb 62 df bd
       -0.08778939 -0.08790126 0.01150939 -0.10907503
000120 84 6c 30 3d f5 8f 4f bd 40 1e aa 3c a0 1f 61 bd
       0.04307224 -0.050674397 0.020766377 -0.0549618
000130 14 56 07 3e 82 67 13 3e 2b 03 0c 3e 0e 14 bd 3d
       0.1321643 0.14394954 0.13673083 0.09232341
000140 05 45 b0 bb 1c 72 37 3d 6b 62 a0 3d 0e 01 63 3d
       -0.0053793215 0.044786558 0.07831272 0.055420928
000150 9c bd 7a 3d 91 f0 f4 3d 9b d2 42 3c f2 20 1a be
       0.06121598 0.11959947 0.011891033 -0.1505163
000160 a1 cc 5e 3d 03 87 c2 bc 7d c0 1c be 03 75 0f 3e
       0.054394368 -0.02374602 -0.15307803 0.1400948
000170 3f 58 03 bd 5f 40 13 be 77 79 0a bd 8b 4a 03 3e
       -0.03206658 -0.14380024 -0.033807244 0.12821405
000180 ef f9 91 3d 0f fd 9d bd 1e 37 2f be c6 e4 ff bb
       0.07127749 -0.07714283 -0.1711087 -0.0078092543
000190 37 2f 87 3d 69 ba ae ba 21 a1 69 3e 63 05 66 3d
       0.066008024 -0.0013330701 0.22815372 0.05615748
0001a0 ce 0b 73 bd 66 71 9b bc 46 d7 24 be ca ca 54 bd
       -0.05933743 -0.018974971 -0.16097745 -0.051951207
0001b0 2e c7 f9 3d 7b ed 3d be 3b fd 01 be 55 8e 74 be
       0.12196194 -0.18547623 -0.12694256 -0.2388242
0001c0 c9 7e 05 be 6d 71 0d be 77 93 22 be aa 0d 78 3d
       -0.13036646 -0.138128 -0.15876566 0.060559906
0001d0 79 11 5e 3c 17 cd c9 3d 08 43 6f bd c4 10 6d bc
       0.0135539705 0.09853571 -0.058413535 -0.014469329
0001e0 eb c2 f7 3d e7 90 3d be 15 84 46 3e 76 fd a2 bc
       0.120977245 -0.18512307 0.19386323 -0.01989625
0001f0 d1 81 61 be db 69 af bd f9 c2 cd 3d 86 e3 15 3d
       -0.22022177 -0.08565112 0.10046954 0.036593936
000200 6b b1 5f 3e 5b 4a 7d be 2e 30 10 3d 48 24 fc 3c
       0.21845023 -0.24735396 0.035202198 0.030779019
000210 73 e0 f1 3d da bf 85 bd 2b ad 0c bc 88 0b fc 3b
       0.118103884 -0.065307334 -0.008586208 0.0076918043
000220 0f 82 29 bc 4f 7a b3 bd 48 e1 e0 bd 96 d4 77 bd
       -0.01034595 -0.08763563 -0.10980469 -0.060505472
000230 53 15 83 bc b7 18 8b bd b8 45 4e 3e 6e ac b8 bc
       -0.01600138 -0.06791823 0.20143783 -0.022543158
000240 66 2b 3a 3d 26 d7 24 3e c2 30 cb 3d 24 9f 31 3e
       0.045451544 0.16097698 0.09921409 0.17345864
000250 f1 9c 3d be 58 a0 00 be b9 2d d5 bd 38 db 21 3d
       -0.185169 -0.12561166 -0.104091115 0.039515704
000260 4f 77 2f 3e e5 d3 21 be 3f b2 7a bd 06 ef 9d 3d
       0.17135356 -0.15803488 -0.061205145 0.07711606
000270 7f 87 bb 3d 6b 18 83 3d d6 ea 3a 3e dd ba ff ba
       0.09156703 0.06401142 0.18253645 -0.0019510646
000280 46 20 bc 3c f9 78 33 bd 0b 4a de bd ca b1 60 3e
       0.022964608 -0.04381654 -0.10853966 0.21942821
000290 e5 f1 01 3e e1 d6 eb bd eb 89 9a bd b1 b8 1a bd
       0.12689932 -0.11515594 -0.07545837 -0.03777379
0002a0 17 f9 4d 3e 11 31 51 bd 74 05 e4 bd 05 dc 23 be
       0.20114551 -0.051072184 -0.111338526 -0.160019
0002b0 6d 64 7b bd bc 0a 92 bd cd c3 16 3e 18 06 63 bc
       -0.06137507 -0.07130954 0.1472313 -0.013856433
0002c0 93 cb 5b bd d0 16 25 3e 6f 0b 16 be 8c ef 02 bd
       -0.05366094 0.16121984 -0.14652799 -0.03196673
0002d0 12 2e 48 3e 7e 20 f1 bd a2 ef 50 bd c6 47 66 3c
       0.19548824 -0.117737755 -0.05100978 0.014055198
0002e0 b5 25 6a 3d ad 56 86 3d 5c c0 2c 3d 12 89 81 bc
       0.057164866 0.06559501 0.042175636 -0.01581243
0002f0 eb 97 e6 3c ff f0 34 3c 60 0a 3d 3e 02 6e 49 bd
       0.028148612 0.011043786 0.18460989 -0.049177177
000300 6f da 84 3c f7 2a fa bd 28 0c 1f be ca 69 44 3d
       0.016217439 -0.12215226 -0.15531981 0.04795245
000310 ba 33 e7 bc bd 28 31 be 8f 94 b6 bd 82 42 bc 3d
       -0.028222907 -0.17300697 -0.08915054 0.09192373
000320 0f a2 a2 3d f8 bc 90 3d 97 2e a0 bd b7 6a 67 bc
       0.079410665 0.07067293 -0.07821386 -0.014124564
000330 dd 6e a2 3d 13 cb 21 be 5b 36 78 3e 17 70 a0 3d
       0.07931302 -0.15800123 0.24239485 0.078338794
000340 c3 2c 6f 3e 62 95 7e be bf 7e d3 3d 53 93 e4 3d
       0.23356919 -0.24861673 0.10326909 0.11160912
000350 12 9e a6 3c d0 79 46 bc 68 fd a7 bd d1 3c 6c be
       0.020339046 -0.012114003 -0.0820263 -0.23070075
000360 d7 1b 68 3e 8d a1 4d bd 04 f3 34 3d d4 9d 71 be
       0.2266687 -0.050202895 0.04417707 -0.23595363
000370 55 d9 d6 bb b5 3c 7c 3d 6c 0b a6 be 7a a4 2c be
       -0.0065566697 0.061581332 -0.3243059 -0.16859618
000380 dd 43 ab 3e 2d 07 db 3d 59 43 22 3c 4e 30 4e bd
       0.33450213 0.10694728 0.009903752 -0.050339036
000390 3e 73 4f be 7f f6 3c be 37 d5 32 bd fa 6e 79 3d
       -0.20258805 -0.18453406 -0.04366037 0.06089685
0003a0 23 5b e9 3d 0c 97 e1 bd 2a 15 95 3d 62 5c b8 3d
       0.11394336 -0.11015138 0.07279427 0.090019956
0003b0 0a 04 c8 3d e4 ec 49 bd 0d e0 31 3d 36 be 58 3c
       0.097663954 -0.049298182 0.043426562 0.013228944
0003c0 7c c2 7f 3d cc de 8b 3d 41 9c 28 3e dd 11 8c bd
       0.062441334 0.068296045 0.16465856 -0.06839345
0003d0 72 44 ed 3c c4 aa 30 be b0 22 34 be 52 91 ac 3e
       0.028963301 -0.17252642 -0.17591357 0.3370462
0003e0 25 c8 74 3c 32 91 7d 3d 90 07 ec 3d 9e 1b 22 3d
       0.014940296 0.061906047 0.1152488 0.03957712
0003f0 3b c0 55 bd 06 07 41 be da 06 89 39 92 43 ef bd
       -0.05218528 -0.18850335 0.0002613578 -0.1168281

params,Dense_1,bias f4 [128]
000000 00 00 00 00 00 00 00 00 00 00 00 00 00 00 00 00
       0.0 0.0 0.0 0.0
000010 00 00 00 00 00 00 00 00 00 00 00 00 00 00 00 00
       0.0 0.0 0.0 0.0
000020 00 00 00 00 00 00 00 00 00 00 00 00 00 00 00 00
       0.0 0.0 0.0 0.0
000030 00 00 00 00 00 00 00 00 00 00 00 00 00 00 00 00
       0.0 0.0 0.0 0.0
000040 00 00 00 00 00 00 00 00 00 00 00 00 00 00 00 00
       0.0 0.0 0.0 0.0
000050 00 00 00 00 00 00 00 00 00 00 00 00 00 00 00 00
       0.0 0.0 0.0 0.0
000060 00 00 00 00 00 00 00 00 00 00 00 00 00 00 00 00
       0.0 0.0 0.0 0.0
000070 00 00 00 00 00 00 00 00 00 00 00 00 00 00 00 00
       0.0 0.0 0.0 0.0
000080 00 00 00 00 00 00 00 00 00 00 00 00 00 00 00 00
       0.0 0.0 0.0 0.0
000090 00 00 00 00 00 00 00 00 00 00 00 00 00 00 00 00
       0.0 0.0 0.0 0.0
0000a0 00 00 00 00 00 00 00 00 00 00 00 00 00 00 00 00
       0.0 0.0 0.0 0.0
0000b0 00 00 00 00 00 00 00 00 00 00 00 00 00 00 00 00
       0.0 0.0 0.0 0.0
0000c0 00 00 00 00 00 00 00 00 00 00 00 00 00 00 00 00
       0.0 0.0 0.0 0.0
0000d0 00 00 00 00 00 00 00 00 00 00 00 00 00 00 00 00
       0.0 0.0 0.0 0.0
0000e0 00 00 00 00 00 00 00 00 00 00 00 00 00 00 00 00
       0.0 0.0 0.0 0.0
0000f0 00 00 00 00 00 00 00 00 00 00 00 00 00 00 00 00
       0.0 0.0 0.0 0.0
000100 00 00 00 00 00 00 00 00 00 00 00 00 00 00 00 00
       0.0 0.0 0.0 0.0
000110 00 00 00 00 00 00 00 00 00 00 00 00 00 00 00 00
       0.0 0.0 0.0 0.0
000120 00 00 00 00 00 00 00 00 00 00 00 00 00 00 00 00
       0.0 0.0 0.0 0.0
000130 00 00 00 00 00 00 00 00 00 00 00 00 00 00 00 00
       0.0 0.0 0.0 0.0
000140 00 00 00 00 00 00 00 00 00 00 00 00 00 00 00 00
       0.0 0.0 0.0 0.0
000150 00 00 00 00 00 00 00 00 00 00 00 00 00 00 00 00
       0.0 0.0 0.0 0.0
000160 00 00 00 00 00 00 00 00 00 00 00 00 00 00 00 00
       0.0 0.0 0.0 0.0
000170 00 00 00 00 00 00 00 00 00 00 00 00 00 00 00 00
       0.0 0.0 0.0 0.0
000180 00 00 00 00 00 00 00 00 00 00 00 00 00 00 00 00
       0.0 0.0 0.0 0.0
000190 00 00 00 00 00 00 00 00 00 00 00 00 00 00 00 00
       0.0 0.0 0.0 0.0
0001a0 00 00 00 00 00 00 00 00 00 00 00 00 00 00 00 00
       0.0 0.0 0.0 0.0
0001b0 00 00 00 00 00 00 00 00 00 00 00 00 00 00 00 00
       0.0 0.0 0.0 0.0
0001c0 00 00 00 00 00 00 00 00 00 00 00 00 00 00 00 00
       0.0 0.0 0.0 0.0
0001d0 00 00 00 00 00 00 00 00 00 00 00 00 00 00 00 00
       0.0 0.0 0.0 0.0
0001e0 00 00 00 00 00 00 00 00 00 00 00 00 00 00 00 00
       0.0 0.0 0.0 0.0
0001f0 00 00 00 00 00 00 00 00 00 00 00 00 00 00 00 00
       0.0 0.0 0.0 0.0

params,Dense_1,kernel f4 [20, 128]
000000 07 95 1b 3d 4f 69 c5 bd f0 45 51 3e 7a f0 2b be
       0.03798392 -0.09639227 0.20436835 -0.16790953
000010 a6 9a cc bd 78 e0 8d 3d 57 91 19 3d 39 d5 b2 bd
       -0.09990434 0.0692758 0.037492123 -0.08732075
000020 fe f6 57 be 57 ad 64 bc 3c 04 c6 3d 41 45 39 3e
       -0.21090314 -0.013957343 0.096687764 0.18092825
000030 e5 21 82 be ca 66 c6 3c d2 0e 8e bd 37 63 26 bd
       -0.25416484 0.024218936 -0.069364205 -0.040621962
000040 d8 84 0a 3e 69 79 f9 bd 9c 70 bb 3d 19 78 80 be
       0.13527238 -0.1218136 0.09152338 -0.25091627
000050 9d 1b 91 3e 2a d9 44 be 25 7a 33 bc 09 3f d1 3c
       0.2834138 -0.19223467 -0.0109544145 0.025542753
000060 96 87 01 be ca 40 e2 3c f1 59 2e 3d ec c1 70 3d
       -0.12649378 0.027618784 0.042566244 0.05877869
000070 f7 8d 52 3e 4b 16 09 3d cc 42 c4 ba 7f d0 f4 3c
       0.20561968 0.033468526 -0.001497352 0.029884575
000080 8f fe 17 3b df 7f 8a 3d d2 4c a0 bd 96 7b 88 bd
       0.00231925 0.06762671 -0.07827152 -0.06664197
000090 dc 6e f4 bb db f6 1f 3d 62 a5 24 be 87 e0 41 be
       -0.0074595045 0.03905378 -0.16078714 -0.18933307
0000a0 ca d5 ed 3d 7e 8d b2 3e 0a 63 e5 3a 99 42 90 3c
       0.11613043 0.34873575 0.0017500829 0.017609881
0000b0 ba 9d 1f bd a3 5d bd bc a6 35 f8 bd 2d a3 f2 3b
       -0.03896878 -0.023115939 -0.121196076 0.007404706
0000c0 b0 84 32 bc a2 63 c0 bd e8 09 62 3e d5 ea 32 be
       -0.010895893 -0.093940035 0.22074091 -0.17472394
0000d0 d6 e7 87 3d 6f 18 c9 bd a4 e2 88 bd d5 e1 cf bd
       0.06636016 -0.098191135 -0.06683853 -0.10150496
0000e0 4a 29 d0 3d 32 83 89 3d bc d5 3d 3e 4d 35 5a 3e
       0.10164125 0.06714477 0.18538564 0.21309395
0000f0 80 1b cf bd a3 87 5e bd ca a3 27 3e 40 0b 24 be
       -0.10112667 -0.054328572 0.16371074 -0.16019917
000100 c7 fc 22 be 04 4b 99 bd 0e e6 e2 3d 16 26 b4 bc
       -0.1591674 -0.07485011 0.11079036 -0.021990817
000110 b2 b4 b4 3d 3d a9 9d bc 2b 59 12 3e a3 7f 8c bd
       0.088235274 -0.019245738 0.14291827 -0.06860282
000120 e5 09 27 3e a8 b4 4d 3c 2e 5f 6e be 32 0c 5e bd
       0.16312368 0.012555279 -0.23278496 -0.05421085
000130 77 6f 9b 3d 1e ef 4b 3d 18 6c 84 be 48 78 77 3d
       0.075896196 0.049788587 -0.2586372 0.060417444
000140 ee 67 d3 3c b2 85 40 3e c6 81 9d bd 37 75 7e 3d
       0.025806393 0.18801 -0.07690768 0.062123504
000150 32 2b 3d 3c 23 aa 02 3e fe 79 81 be bc 83 d4 3d
       0.011545943 0.12760215 -0.25288385 0.10376689
000160 62 62 f6 bd 31 e5 f1 3d 72 66 de bd f6 2b 2b 3b
       -0.12030484 0.11811293 -0.10859384 0.0026118732
000170 b1 3f e8 bc 0e 98 eb bb c6 4d 45 3d 81 c6 81 bd
       -0.028350683 -0.007189757 0.048169874 -0.0633669
000180 32 e1 f4 3c 83 26 9e bd 50 3a 0b 3e 5e 62 bb 3d
       0.029892538 -0.07722189 0.13596463 0.091496214
000190 ca d1 31 bc 37 a0 ce bd dd 62 f1 3c 98 47 76 3d
       -0.01085324 -0.10089152 0.029466087 0.06012687
0001a0 36 fa 30 bc 61 81 a5 bc fe 6d 67 be 59 03 77 3d
       -0.010801842 -0.020203294 -0.22600552 0.060305927
0001b0 75 d1 42 3e dd 30 08 3e 03 95 ef 3d 22 ce 4b 3e
       0.19025214 0.1329989 0.116983436 0.19902852
0001c0 bf 4b d6 bb ef 32 dd bd 6f 48 70 3c 51 9c d7 3d
       -0.0065397914 -0.108007304 0.014665707 0.10527862
0001d0 4a 32 68 be fe c8 7a 3d 3c 4e 29 be 9a 58 3d 3e
       -0.22675434 0.061226837 -0.1653375 0.1849083
0001e0 61 0e 8c bc 2f 16 8c be 65 c3 09 3e f1 69 76 bc
       -0.0170967 -0.27360675 0.13453443 -0.015039907
0001f0 21 0a 8a bd 1e 60 28 be 02 d7 42 3e 82 a7 88 bd
       -0.06740213 -0.16442916 0.19027331 -0.066725746
000200 b2 5c 49 bd 48 52 1d 3e 93 d3 d2 bd b8 58 09 be
       -0.049160667 0.15363419 -0.10294261 -0.1341275
000210 df c7 93 bd cd 6e 96 bd 01 06 93 3d d3 3c 1b bd
       -0.07215857 -0.07345352 0.071788795 -0.037899803
000220 44 2b 12 3e e1 f3 24 3e b9 36 a6 bd 76 e9 5a 3d
       0.14274317 0.16108657 -0.08115906 0.053445302
000230 7e f8 57 be d3 1d 68 3e 29 03 9a bd 21 75 47 be
       -0.21090886 0.22667627 -0.07520134 -0.19478275
000240 8f 31 a1 bd a0 c5 90 3d e4 98 f8 3d 7a ef df 3d
       -0.07870781 0.07068944 0.121385366 0.109343484
000250 7c b2 38 be c8 02 3b 3d 82 3b 8a be f7 af c9 bd
       -0.18036836 0.04565695 -0.26998526 -0.09848016
000260 19 5b 52 be 6d ff 82 bd 25 83 71 3e aa 35 65 3e
       -0.20542563 -0.06396375 0.23585184 0.22383752
000270 1a a4 50 3c d3 85 dc bd 7c 73 9d bc d9 55 60 3d
       0.012734437 -0.107677124 -0.019220106 0.05476937
000280 e6 32 72 3c d4 b5 07 3d 7e 06 f6 bc e3 2c 8c be
       0.014782643 0.03313239 -0.030032393 -0.27377996
000290 6a ec a9 be 11 8b 12 be 32 24 88 be ee bd 4c 3e
       -0.33188182 -0.14310862 -0.26590115 0.19994327
0002a0 57 21 aa 3c 63 6a bd 3c f2 65 65 be 64 18 02 bd
       0.02076785 0.023122018 -0.2240217 -0.031761542
0002b0 c3 27 c9 bd ba 00 9a bd d3 8b 30 be 33 d3 3c bd
       -0.09822037 -0.0751967 -0.17240839 -0.046099853
0002c0 e2 69 5e bd ab 8f 49 3d fc e4 3d bd 2e 32 e3 bd
       -0.054300196 0.049209278 -0.046360955 -0.110935554
0002d0 4d 74 d6 3b b6 dd 4d be de 82 dc 3d c9 ba 70 3d
       0.006544626 -0.20104107 0.107671484 0.058771882
0002e0 68 e2 6c 3d 99 83 01 3e 65 39 23 3d 92 48 90 bd
       0.057833105 0.12647857 0.039849658 -0.07045092
0002f0 23 6d ac bc bd 11 29 be 3a b8 29 be e4 32 f2 bd
       -0.021048134 -0.16510673 -0.16574183 -0.11826113
000300 47 79 e8 bc 8f 47 e7 3c 66 67 a9 3d ad d1 56 3d
       -0.028378142 0.028232364 0.08271675 0.052446056
000310 2c f0 61 3d e1 b2 49 3d 57 50 2b be 37 84 9c 3d
       0.055160686 0.049242858 -0.16729866 0.076424055
000320 ac 9e 9c 3c 25 e1 9c be 41 02 74 bd ff 82 09 3d
       0.01911863 -0.30640522 -0.059572462 0.033572193
000330 da ec d4 bd 41 af 68 bd 77 b2 db 3b 32 03 3e be
       -0.10396738 -0.05680776 0.0067046243 -0.18555906
000340 74 14 9f 3d 4b ea 11 3e 18 4e c2 bc 1e 0b 39 3d
       0.07767573 0.14249532 -0.023718879 0.045176618
000350 58 2d 97 3d 76 25 f1 3c 44 49 92 3d a7 a4 3a bd
       0.073816955 0.029436808 0.071428806 -0.04556718
000360 64 88 bb bd 86 0a 9d 3d 3b 1a 50 be cc 1b 20 3e
       -0.09156874 0.07668023 -0.20322506 0.15635604
000370 74 5d ae bc 42 f6 0e 3e a5 4a 40 be 01 17 2b 3e
       -0.021284796 0.13961127 -0.18778475 0.16707994
000380 ac fc 50 bc c4 6c 4a 3e c8 b6 ca 3d 48 2d 22 be
       -0.012755554 0.19768053 0.09898144 -0.15837586
000390 d7 f0 c2 bc f2 54 47 bd 92 b2 89 bd 71 74 15 bd
       -0.023796482 -0.048664995 -0.06723513 -0.036488
0003a0 9e 1d 16 bc 7e 92 47 be 3a 8e 80 bd 55 77 90 bd
       -0.009162335 -0.19489476 -0.062771276 -0.07054011
0003b0 1d e5 04 be bf 7e 9e bc 78 cd 74 be 79 c9 94 3d
       -0.12978025 -0.019347547 -0.23906505 0.0726499
0003c0 17 94 cb bd 4a cf 55 3d ce 51 2e be f1 40 d7 3d
       -0.09940355 0.05219964 -0.17023394 0.105104335
0003d0 48 f4 8b 3d 00 9a 33 bb 0b 4e 76 3c fa ac 03 bd
       0.06833702 -0.0027405024 0.015033255 -0.032147385
0003e0 45 f9 47 bc 53 46 91 bd bb 11 ff bd cd 78 f9 3c
       -0.012205427 -0.070934914 -0.12454554 0.03045311
0003f0 4a 75 16 bd 67 e7 e6 bd e4 e9 8f be af fd 42 be
       -0.03673295 -0.11274605 -0.28108132 -0.19042085

params,Dense_10,bias f4 [128]
000000 00 00 00 00 00 00 00 00 00 00 00 00 00 00 00 00
       0.0 0.0 0.0 0.0
000010 00 00 00 00 00 00 00 00 00 00 00 00 00 00 00 00
       0.0 0.0 0.0 0.0
000020 00 00 00 00 00 00 00 00 00 00 00 00 00 00 00 00
       0.0 0.0 0.0 0.0
000030 00 00 00 00 00 00 00 00 00 00 00 00 00 00 00 00
       0.0 0.0 0.0 0.0
000040 00 00 00 00 00 00 00 00 00 00 00 00 00 00 00 00
       0.0 0.0 0.0 0.0
000050 00 00 00 00 00 00 00 00 00 00 00 00 00 00 00 00
       0.0 0.0 0.0 0.0
000060 00 00 00 00 00 00 00 00 00 00 00 00 00 00 00 00
       0.0 0.0 0.0 0.0
000070 00 00 00 00 00 00 00 00 00 00 00 00 00 00 00 00
       0.0 0.0 0.0 0.0
000080 00 00 00 00 00 00 00 00 00 00 00 00 00 00 00 00
       0.0 0.0 0.0 0.0
000090 00 00 00 00 00 00 00 00 00 00 00 00 00 00 00 00
       0.0 0.0 0.0 0.0
0000a0 00 00 00 00 00 00 00 00 00 00 00 00 00 00 00 00
       0.0 0.0 0.0 0.0
0000b0 00 00 00 00 00 00 00 00 00 00 00 00 00 00 00 00
       0.0 0.0 0.0 0.0
0000c0 00 00 00 00 00 00 00 00 00 00 00 00 00 00 00 00
       0.0 0.0 0.0 0.0
0000d0 00 00 00 00 00 00 00 00 00 00 00 00 00 00 00 00
       0.0 0.0 0.0 0.0
0000e0 00 00 00 00 00 00 00 00 00 00 00 00 00 00 00 00
       0.0 0.0 0.0 0.0
0000f0 00 00 00 00 00 00 00 00 00 00 00 00 00 00 00 00
       0.0 0.0 0.0 0.0
000100 00 00 00 00 00 00 00 00 00 00 00 00 00 00 00 00
       0.0 0.0 0.0 0.0
000110 00 00 00 00 00 00 00 00 00 00 00 00 00 00 00 00
       0.0 0.0 0.0 0.0
000120 00 00 00 00 00 00 00 00 00 00 00 00 00 00 00 00
       0.0 0.0 0.0 0.0
000130 00 00 00 00 00 00 00 00 00 00 00 00 00 00 00 00
       0.0 0.0 0.0 0.0
000140 00 00 00 00 00 00 00 00 00 00 00 00 00 00 00 00
       0.0 0.0 0.0 0.0
000150 00 00 00 00 00 00 00 00 00 00 00 00 00 00 00 00
       0.0 0.0 0.0 0.0
000160 00 00 00 00 00 00 00 00 00 00 00 00 00 00 00 00
       0.0 0.0 0.0 0.0
000170 00 00 00 00 00 00 00 00 00 00 00 00 00 00 00 00
       0.0 0.0 0.0 0.0
000180 00 00 00 00 00 00 00 00 00 00 00 00 00 00 00 00
       0.0 0.0 0.0 0.0
000190 00 00 00 00 00 00 00 00 00 00 00 00 00 00 00 00
       0.0 0.0 0.0 0.0
0001a0 00 00 00 00 00 00 00 00 00 00 00 00 00 00 00 00
       0.0 0.0 0.0 0.0
0001b0 00 00 00 00 00 00 00 00 00 00 00 00 00 00 00 00
       0.0 0.0 0.0 0.0
0001c0 00 00 00 00 00 00 00 00 00 00 00 00 00 00 00 00
       0.0 0.0 0.0 0.0
0001d0 00 00 00 00 00 00 00 00 00 00 00 00 00 00 00 00
       0.0 0.0 0.0 0.0
0001e0 00 00 00 00 00 00 00 00 00 00 00 00 00 00 00 00
       0.0 0.0 0.0 0.0
0001f0 00 00 00 00 00 00 00 00 00 00 00 00 00 00 00 00
       0.0 0.0 0.0 0.0

params,Dense_10,kernel f4 [128, 128]
000000 18 cc 0e 3e a2 5a e1 3d e4 88 35 38 7c ed a0 bd
       0.13945043 0.11003615 4.3281252e-05 -0.078577965
000010 a9 08 54 3e 1c 57 2d bd b3 71 72 bd 1d fb 45 3e
       0.20706429 -0.042319402 -0.059190463 0.19334073
000020 ab 86 d1 3d 37 98 49 be ff d0 43 3c a9 74 cd bd
       0.10230764 -0.19686972 0.011951684 -0.10032017
000030 17 4a fd 3d fb d8 59 3c 3f 76 11 3c eb 69 84 bd
       0.12367647 0.013296361 0.00887829 -0.06465515
000040 dd cb fc 3d d8 21 45 bd ba e3 a8 3d fb cc 62 3d
       0.12343571 -0.04812798 0.082465604 0.055371266
000050 ba ed 38 3e e7 2b 96 bd 6a 61 1a be 33 a2 3e be
       0.18059435 -0.073325925 -0.15076223 -0.18616562
000060 33 ca 81 3e ee 27 19 3e 6d 8c 61 bd 26 10 64 3e
       0.25349578 0.14956638 -0.05506556 0.22271785
000070 e6 07 34 be 10 b6 e1 3d 5e 6c a9 bd 94 c5 9c 3d
       -0.17581138 0.11021054 -0.082726225 0.076548725
000080 47 59 9a 3d 7f 03 6d be ed 24 91 be 46 ae dc 3d
       0.075365596 -0.23145865 -0.28348485 0.107754275
000090 c6 a5 05 3d 6a 42 75 be 62 61 a6 bd bd d0 1b bd
       0.032628797 -0.23951116 -0.08124043 -0.038040865
0000a0 f6 0d 23 3e 26 eb 6d 3c d1 da 7b 3e 9e 1e 0e 3e
       0.15923294 0.014521396 0.2459519 0.13878867
0000b0 0f 8c ec 3c 55 a7 52 3d bc e0 38 bc b2 6f 10 3d
       0.028875379 0.05142911 -0.01128405 0.03526277
0000c0 a9 aa 73 3d f7 6c ac bc ba 94 19 bd c1 ab 21 bc
       0.059488926 -0.021048052 -0.037495352 -0.0098676095
0000d0 c2 7f 25 3e 10 99 fd 3b 80 7b ce 3c d0 dc e0 3c
       0.16162017 0.0077391937 0.025205374 0.027449042
0000e0 16 92 fa bd 08 8c 7a 3d 2e 8d 42 be fe 16 b1 3d
       -0.12234895 0.0611687 -0.18999168 0.086469635
0000f0 a9 0b f1 3d 1c e8 37 3d 89 21 c7 3c cd 1d 1a bd
       0.11769802 0.04489909 0.024307983 -0.037626076
000100 a5 3a 21 bd ab 8d cb 3d 01 d4 34 be 60 a1 38 be
       -0.03936257 0.099391304 -0.17658998 -0.1803031
000110 c8 f6 1b 3e 52 e0 95 bc 4e 0e d1 3d cc 32 77 3d
       0.15230858 -0.01829544 0.102078065 0.060351178
000120 78 e0 c0 bb c0 91 14 3e 31 e6 a3 3d 02 09 c5 bc
       -0.0058861338 0.14508724 0.0800289 -0.024052147
000130 47 a1 b7 3d 19 ab 4c 3e 47 d0 7e 3c 8c 35 ba 3d
       0.08966308 0.19987144 0.015552587 0.090922445
000140 04 46 51 bd da f5 f0 3d 7e 0f fe bc 56 2e 23 be
       -0.051092163 0.117656425 -0.031013247 -0.15935645
000150 38 ea 8d 3e 31 3c 87 bd 97 ca 7b be 25 cb fb bb
       0.27717757 -0.066032775 -0.24589 -0.007684129
000160 98 77 ae bc 2b bc a1 3d d8 6d 4e bd 91 98 c4 bd
       -0.021297261 0.07897218 -0.050397724 -0.09599412
000170 fa ab 9f 3d 2c 6b 75 3d e1 d9 cc 3d 4f f2 34 bd
       0.07796474 0.05991666 0.100024946 -0.044176396
000180 3c bb 16 be 21 94 37 3d 2d 14 75 bd 76 d3 33 be
       -0.14719862 0.044819 -0.059833694 -0.17561135
000190 92 a6 47 be 29 d6 38 3d 51 e0 3f 3d f5 7a 9e 38
       -0.19497135 0.045126114 0.046844784 7.5569296e-05
0001a0 f0 12 13 3e 1c 7f 95 bb 40 54 87 3e 99 a5 a8 3e
       0.14362693 -0.0045622718 0.26431465 0.3293884
0001b0 6c 6e 14 3e a7 21 c3 bd 2f 2c 81 bc c5 80 cc 3c
       0.14495248 -0.09527903 -0.015768139 0.024963746
0001c0 b3 53 7b be 0a ca de 3d 1d 14 e4 3d 61 a0 6e 3e
       -0.24543647 0.1087838 0.11136649 0.23303367
0001d0 22 03 15 be 51 54 71 3d 83 42 1c 3e 22 57 38 3e
       -0.14551976 0.0589183 0.15259747 0.18001989
0001e0 d8 f8 e8 3c 27 94 4f bd ed 9b b5 3d db a7 38 3b
       0.02843897 -0.0506784 0.08867631 0.0028176222
0001f0 4e da ad 3d ba ee 0c be 35 af ad bd 84 78 1a 3e
       0.08488904 -0.13762942 -0.08480684 0.15085036
000200 c7 dc 75 3e 1e 0c 1e bd 2e 61 39 be e3 bc 7e 3d
       0.24010001 -0.038585775 -0.18103477 0.062191855
000210 b5 92 f6 bd c7 f6 9a be 0d 57 1a 3c a2 21 f5 3d
       -0.12039701 -0.302664 0.009420169 0.119693056
000220 6a 3e 3d 3d e1 04 b6 bd 24 e1 41 be 55 5c 86 bd
       0.0462021 -0.08887649 -0.1893354 -0.0656058
000230 77 15 48 3e 10 02 ea 3d bb 81 f0 3c 48 32 ed bd
       0.19539438 0.11426175 0.029358735 -0.11581856
000240 39 3c 06 3d 60 99 27 be e0 78 58 bd 28 3c 65 be
       0.032772277 -0.16367102 -0.05284965 -0.22386229
000250 69 15 ea bc de 49 51 be e1 e4 8b be d5 25 fd 3d
       -0.028574662 -0.20438334 -0.27323058 0.123607315
000260 92 7a 6c 3e a5 b1 0a bc cf 3a a5 3d 04 98 2f 3a
       0.23093632 -0.008465205 0.080678575 0.00066983723
000270 57 02 16 be 3d c8 b8 3c 8b a3 42 3e 47 8d b9 3c
       -0.1464933 0.022556419 0.19007699 0.022650374
000280 b2 b0 56 3c 23 33 20 3d 32 04 57 3d a0 92 ed bd
       0.013103651 0.039111268 0.052494235 -0.11600232
000290 cf 7c 9d 3d 1a 97 60 bd 77 77 4e bd b5 92 a2 bd
       0.07689821 -0.0548316 -0.0504069 -0.079381384
0002a0 00 08 84 3e cb 45 17 bd 67 02 2e be ad df 59 bd
       0.25787354 -0.036931794 -0.16993104 -0.05319183
0002b0 33 33 f6 3d ec bc e7 bd 19 18 19 be 91 f3 0d be
       0.12021484 -0.11315331 -0.14950599 -0.13862444
0002c0 8a 87 b1 bd f0 8c e9 bd 15 d0 2e 3e 9b 9d 21 be
       -0.0866843 -0.11403835 0.17071564 -0.15782778
0002d0 ee 5f 1a be ef 36 b8 3c 64 7b 08 3e 16 bc f3 3d
       -0.15075657 0.022487132 0.1332832 0.11901109
0002e0 e9 97 84 3e d2 63 00 be a8 f6 1f 3d df 2a 1c 3e
       0.25897148 -0.12538078 0.03905359 0.15250729
0002f0 92 e6 09 3d 39 e0 57 be 2a 89 a3 bd b4 da 13 3d
       0.033667155 -0.21081628 -0.07985146 0.036097243
000300 b4 6b c4 3d a2 6a 9a 3b 14 5b 1f 3e 22 ef 48 3c
       0.09590855 0.0047124187 0.15562087 0.012264045
000310 85 74 83 3d 25 da 86 be bf f6 02 be 8d 1d 64 3c
       0.06418709 -0.26338306 -0.12789439 0.013923061
000320 2d 42 29 3e bd 46 93 bd f2 2c 6e bc 52 0b d3 bd
       0.1652915 -0.07191227 -0.014537083 -0.103048936
000330 b7 3d af bd 24 85 fb 3d 16 df 25 be 47 45 0d bd
       -0.08556693 0.12281254 -0.16198382 -0.034489896
000340 0d 11 5b 3e ef 4a fe 3d a5 da 1c be b2 0f aa 3c
       0.21393223 0.12416636 -0.15317781 0.020759437
000350 3f 1e 99 bd b1 7d 68 3d 00 f2 b7 bd b6 5b 6a 3d
       -0.07476472 0.056760494 -0.08981705 0.05721637
000360 47 43 01 bd be a1 bf bc 47 17 ac 3c ca da aa 3d
       -0.0315583 -0.023392554 0.021007193 0.08342512
000370 6d 24 8b be c2 6d b6 3d 06 ca dc bd 26 16 e0 3d
       -0.27176228 0.089076534 -0.107807204 0.109417245
000380 e9 bd 86 bc 35 fe 54 3b b2 b1 8d bc 9f cb 9b 3d
       -0.016447978 0.0032500152 -0.017296646 0.07607197
000390 58 38 fd 3d 93 fc 1f 3e 53 04 b7 3d 75 53 30 be
       0.12364262 0.15623693 0.08936372 -0.17219336
0003a0 5a e5 34 bb 94 ff 90 3d b8 7a 80 3d 9d c3 a4 bc
       -0.0027602524 0.07079998 0.06273407 -0.020112807
0003b0 cd f3 16 3e e6 11 0a be 9e 43 0a be a7 79 4d 3d
       0.1474144 -0.1348339 -0.13502356 0.050164845
0003c0 3e 00 70 3d e8 3a c1 bd 6d 37 b7 3c 64 1d a8 3c
       0.05859398 -0.094350636 0.022365296 0.020521827
0003d0 d1 31 5f 3e cf 7d b8 bc dc 82 46 be 62 9f 77 3d
       0.21796347 -0.022520928 -0.19385856 0.060454734
0003e0 f7 33 c2 bd b0 97 25 be c6 2f 3a 3e bf e2 07 bd
       -0.09482568 -0.16171145 0.18182287 -0.033175226
0003f0 96 1c 36 be 3d 43 10 be a2 53 0d be a3 0e c4 bd
       -0.17784342 -0.1408815 -0.13801435 -0.09573104

params,Dense_11,bias f4 [128]
000000 00 00 00 00 00 00 00 00 00 00 00 00 00 00 00 00
       0.0 0.0 0.0 0.0
000010 00 00 00 00 00 00 00 00 00 00 00 00 00 00 00 00
       0.0 0.0 0.0 0.0
000020 00 00 00 00 00 00 00 00 00 00 00 00 00 00 00 00
       0.0 0.0 0.0 0.0
000030 00 00 00 00 00 00 00 00 00 00 00 00 00 00 00 00
       0.0 0.0 0.0 0.0
000040 00 00 00 00 00 00 00 00 00 00 00 00 00 00 00 00
       0.0 0.0 0.0 0.0
000050 00 00 00 00 00 00 00 00 00 00 00 00 00 00 00 00
       0.0 0.0 0.0 0.0
000060 00 00 00 00 00 00 00 00 00 00 00 00 00 00 00 00
       0.0 0.0 0.0 0.0
000070 00 00 00 00 00 00 00 00 00 00 00 00 00 00 00 00
       0.0 0.0 0.0 0.0
000080 00 00 00 00 00 00 00 00 00 00 00 00 00 00 00 00
       0.0 0.0 0.0 0.0
000090 00 00 00 00 00 00 00 00 00 00 00 00 00 00 00 00
       0.0 0.0 0.0 0.0
0000a0 00 00 00 00 00 00 00 00 00 00 00 00 00 00 00 00
       0.0 0.0 0.0 0.0
0000b0 00 00 00 00 00 00 00 00 00 00 00 00 00 00 00 00
       0.0 0.0 0.0 0.0
0000c0 00 00 00 00 00 00 00 00 00 00 00 00 00 00 00 00
       0.0 0.0 0.0 0.0
0000d0 00 00 00 00 00 00 00 00 00 00 00 00 00 00 00 00
       0.0 0.0 0.0 0.0
0000e0 00 00 00 00 00 00 00 00 00 00 00 00 00 00 00 00
       0.0 0.0 0.0 0.0
0000f0 00 00 00 00 00 00 00 00 00 00 00 00 00 00 00 00
       0.0 0.0 0.0 0.0
000100 00 00 00 00 00 00 00 00 00 00 00 00 00 00 00 00
       0.0 0.0 0.0 0.0
000110 00 00 00 00 00 00 00 00 00 00 00 00 00 00 00 00
       0.0 0.0 0.0 0.0
000120 00 00 00 00 00 00 00 00 00 00 00 00 00 00 00 00
       0.0 0.0 0.0 0.0
000130 00 00 00 00 00 00 00 00 00 00 00 00 00 00 00 00
       0.0 0.0 0.0 0.0
000140 00 00 00 00 00 00 00 00 00 00 00 00 00 00 00 00
       0.0 0.0 0.0 0.0
000150 00 00 00 00 00 00 00 00 00 00 00 00 00 00 00 00
       0.0 0.0 0.0 0.0
000160 00 00 00 00 00 00 00 00 00 00 00 00 00 00 00 00
       0.0 0.0 0.0 0.0
000170 00 00 00 00 00 00 00 00 00 00 00 00 00 00 00 00
       0.0 0.0 0.0 0.0
000180 00 00 00 00 00 00 00 00 00 00 00 00 00 00 00 00
       0.0 0.0 0.0 0.0
000190 00 00 00 00 00 00 00 00 00 00 00 00 00 00 00 00
       0.0 0.0 0.0 0.0
0001a0 00 00 00 00 00 00 00 00 00 00 00 00 00 00 00 00
       0.0 0.0 0.0 0.0
0001b0 00 00 00 00 00 00 00 00 00 00 00 00 00 00 00 00
       0.0 0.0 0.0 0.0
0001c0 00 00 00 00 00 00 00 00 00 00 00 00 00 00 00 00
       0.0 0.0 0.0 0.0
0001d0 00 00 00 00 00 00 00 00 00 00 00 00 00 00 00 00
       0.0 0.0 0.0 0.0
0001e0 00 00 00 00 00 00 00 00 00 00 00 00 00 00 00 00
       0.0 0.0 0.0 0.0
0001f0 00 00 00 00 00 00 00 00 00 00 00 00 00 00 00 00
       0.0 0.0 0.0 0.0

params,Dense_11,kernel f4 [128, 128]
000000 34 aa 5d 3d f7 2e 43 be 1b 53 9c 3c 50 53 90 3c
       0.054117396 -0.19060884 0.019082597 0.017617851
000010 70 d0 14 be fc 6b 02 be 7c 37 9e 3d 07 b0 1c be
       -0.14532638 -0.12736505 0.077254266 -0.15301524
000020 78 ee 25 be 1d 3a 56 3e ad 4d 0c 3e 5e a7 06 3e
       -0.1620425 0.20920606 0.13701506 0.13149783
000030 e2 c8 03 be 85 17 41 be d5 2c 05 bc aa f7 63 bd
       -0.128696 -0.18856628 -0.008128365 -0.055656113
000040 bc 74 cb bc f4 96 ba bc a3 94 ac 3d f3 00 46 ba
       -0.024835937 -0.022777058 0.08426788 -0.0007553242
000050 5f 96 a2 3d 37 ed e7 3d cf 38 ff bd f3 da bb bc
       0.07938837 0.11324542 -0.12462007 -0.022931552
000060 1f f8 a1 3b d8 97 d6 3d e2 32 99 bd c5 dc 33 bd
       0.0049429084 0.10478181 -0.07480408 -0.043911714
000070 c9 70 5f 3d af f8 47 3e ed 14 ce 3d 7a ec 4e 3e
       0.05455092 0.19528459 0.10062585 0.20207396
000080 dd 0d 00 3e 2c ae 58 bd e1 d7 84 bd 86 50 81 bd
       0.12505288 -0.05290048 -0.06486488 -0.06314187
000090 3d 38 35 3e 6e c6 57 bd be ac 58 3e df 3f c6 bd
       0.17697234 -0.05267947 0.21159646 -0.09680151
0000a0 35 82 5b bc 53 bb d7 bc 33 0c f8 bd 54 80 06 be
       -0.013397743 -0.02633444 -0.12111702 -0.13134891
0000b0 d7 be dd 3d 91 65 94 3e b5 16 e1 bb c4 ac 85 be
       0.108274154 0.2898374 -0.006869162 -0.26108372
0000c0 83 d7 cd bd f3 bf 50 bc 30 10 bf bc 4a b6 72 3d
       -0.10050871 -0.012741077 -0.023323148 0.059255876
0000d0 89 cb 72 3e da 52 85 3e 95 02 3d 3d 2b 9d a6 bd
       0.23710455 0.26039773 0.04614504 -0.08135446
0000e0 3d fb e4 3c 9e 02 c6 3d b0 b3 79 bc 83 59 97 3c
       0.027951831 0.09668468 -0.015240595 0.0184753
0000f0 99 b3 b2 3b 19 e1 d3 bd 5c e7 d6 bc 73 24 33 be
       0.0054535386 -0.10345668 -0.026233368 -0.17494373
000100 8d b9 39 3c 3f ff 7a bd a2 4f 4a 3e 84 05 5b 3d
       0.011335743 -0.061278578 0.1975694 0.053472057
000110 49 19 68 be 6c 92 31 be e3 47 37 3e a0 47 6e 3b
       -0.22665896 -0.17341012 0.17898516 0.003635861
000120 f7 1e 85 bc 6b 93 15 be 57 50 92 3d 91 e3 4c 3d
       -0.016250117 -0.14607017 0.0714423 0.05002171
000130 22 a8 62 bd 74 70 ca bd 6a 99 0c 3d 04 b9 9d be
       -0.055336125 -0.0988473 0.034325995 -0.30805218
000140 86 a4 6c 3e a3 f9 f4 3d a4 28 99 be 84 9d 55 be
       0.23109636 0.11961677 -0.2991382 -0.20860869
000150 fb 0d dd bd ae f7 58 bc 6b 6f 21 be c8 64 ea bc
       -0.10793682 -0.013242645 -0.15765159 -0.02861251
000160 84 45 03 3e 09 a8 72 3d c0 32 75 bc 5a b9 7a 3d
       0.12819487 0.059242282 -0.014965713 0.06121192
000170 91 36 55 3e f3 f7 c4 bc b6 ec 62 bd 82 1e 5a 3e
       0.20821597 -0.024044013 -0.055401526 0.213007
000180 66 b2 5b 3e e5 88 45 3d e2 9e e0 bd 5d d5 22 3e
       0.21454772 0.048226256 -0.109678045 0.15901704
000190 49 21 7d 3d eb 43 be bd d7 91 a4 3c 47 c9 d4 3d
       0.06179932 -0.09290298 0.020089073 0.10389953
0001a0 97 37 82 3d bc e9 bb 3d 9b d5 07 be fe d2 59 bd
       0.06358259 0.09175441 -0.13265078 -0.053179733
0001b0 16 3c bf bd 5c e2 87 3d bf dc c4 bd 93 80 3b 3e
       -0.09337632 0.066349715 -0.096124165 0.18310766
0001c0 49 38 b6 3d a1 fe c6 3d 09 c1 03 3c ab be 17 be
       0.08897454 0.09716535 0.008041629 -0.14818828
0001d0 c6 20 a1 bd 04 47 3c bd 7c 51 3f 3c 2e 6b c0 bb
       -0.07867579 -0.045966163 0.011677142 -0.005872152
0001e0 28 54 f1 3d 38 ff 5d bd ef 44 15 be 54 28 fe 3d
       0.1178363 -0.054198474 -0.14577077 0.12410036
0001f0 eb b3 80 3e 8c 53 4a 3e ac e8 8c bd 95 00 ba 3d
       0.25137267 0.19758433 -0.06880316 0.09082142
000200 f9 3b b2 bd 39 5e 52 be 50 47 0e be 71 eb 80 3d
       -0.08702845 -0.20543756 -0.13894391 0.06294907
000210 c0 1f 60 3d 2c a4 a1 bd 03 8c cb bd 4c d0 7d bd
       0.05471778 -0.078926414 -0.099388145 -0.061966226
000220 32 4e 19 be 34 3d 0c 3b ee e3 b2 3d 15 ad 42 bb
       -0.14971235 0.0021398785 0.087348804 -0.0029705216
000230 8e 83 1c 3e e3 fe 3c bd 3f 5d 4d be b0 4e e2 bd
       0.15284559 -0.046141516 -0.20055102 -0.11050165
000240 6c cc e5 3d b8 e1 fc bd 17 ff 9e 3d 5c 17 be bd
       0.11220631 -0.1234774 0.07763498 -0.09281799
000250 15 3f 0d 3d 8b 25 f0 3d 79 7b 11 3e 66 4e 89 3b
       0.034483988 0.11725911 0.14207257 0.004190254
000260 29 1e 01 3e 9f f4 82 3c 9d 03 87 be 37 9a 5d bd
       0.12609161 0.015985785 -0.26369944 -0.05410215
000270 15 b0 99 bd 24 68 2a 3c fe a7 cd bb 82 3a ce 3d
       -0.07504288 0.010400806 -0.0062761297 0.10069753
000280 2b eb a1 be a0 c2 10 3e e2 3a 17 3c 37 34 f9 3d
       -0.3162473 0.14136744 0.009230347 0.12168162
000290 54 83 aa bd 2d 35 92 bc ee e5 16 3d e7 75 5d bd
       -0.0832583 -0.017847622 0.03684037 -0.05406752
0002a0 64 70 c7 3d ee cb ba bd 2d 55 94 3b ac fc 44 be
       0.09738234 -0.09120928 0.0045267553 -0.19237012
0002b0 77 62 73 3d ab b6 ae bc 85 7a 01 be fc 42 13 be
       0.059420075 -0.021327337 -0.12644394 -0.14381021
0002c0 61 29 3b 3d 85 b8 71 3e 37 8a bf bd 7c 7b 8f bd
       0.04569376 0.23605545 -0.09352534 -0.07005975
0002d0 62 c2 7c be 97 ec 0f be 60 0c 95 bd 6d df 86 3c
       -0.24683526 -0.14055096 -0.07277751 0.01646396
0002e0 12 7d 75 3e 81 b6 8c 3e 24 8b 85 be 67 73 78 bd
       0.23973492 0.2748299 -0.26082718 -0.06065693
0002f0 45 57 44 3d 7e c2 8b be 63 65 38 bb 72 b2 f2 3a
       0.04793479 -0.27296823 -0.0028136603 0.0018516316
000300 23 0c da bd 9d 66 81 bd a8 52 59 3d 72 10 26 be
       -0.10646846 -0.063184 0.053057343 -0.16217211
000310 91 95 3a be af 37 9d bc 70 39 f5 bd 02 bf e7 3d
       -0.18221118 -0.019191591 -0.11973846 0.11315729
000320 c4 a9 e1 3d 2c d4 80 3e 9a e9 5a 3e cb a5 0b 3d
       0.11018708 0.25161874 0.21378174 0.03409366
000330 b0 7c df bd cf a3 ee bd bc f1 c9 3d f0 df fb 3d
       -0.10912454 -0.11652338 0.0986056 0.12298572
000340 cf e6 c2 bd 7e 43 5a 3d 54 d5 45 be 7c c4 88 bd
       -0.095166795 0.05328702 -0.1931966 -0.066781014
000350 1e 42 07 3e 20 bf 90 3d c7 cb 28 3c a2 19 26 3e
       0.13208815 0.07067704 0.010302491 0.16220716
000360 7f 7b ac 3d ab e8 69 be 02 1c 05 3b da a9 32 3e
       0.084219925 -0.22842662 0.0020310883 0.17447606
000370 d0 d9 8d 3e b7 4c 8f bd 32 a1 9d bd 20 81 fc 3b
       0.2770524 -0.06997054 -0.07696761 0.0077058226
000380 a8 d8 e3 bd cd bb 8d 3c 0d 7e 24 3e ad 05 08 be
       -0.11125308 0.017301464 0.1606371 -0.13283415
000390 d0 30 c6 3c 63 81 e5 3d 21 8f be bd c1 ec aa bc
       0.024193197 0.11206319 -0.093046434 -0.020864846
0003a0 b3 22 12 be f0 9f 31 ba 8c 3c 1c be 6f 55 b9 bd
       -0.14271049 -0.00067758467 -0.15257472 -0.09049498
0003b0 39 a2 a5 3b e0 54 c5 bd a0 aa 6a be 3f 1d 32 bd
       0.005054739 -0.09635329 -0.22916651 -0.043484922
0003c0 7d d6 d3 3d d3 fa 2a 3c 23 fd 9b 3d cd 38 0c 3e
       0.10343645 0.010435778 0.07616641 0.13693543
0003d0 02 55 5f 3e 7e 59 cb 3c 61 cb 70 bd d1 32 44 bd
       0.21809772 0.024822947 -0.058787707 -0.047900025
0003e0 d8 a6 2a be 2e a7 ca 3d 22 b6 99 3d 5e 63 29 be
       -0.16665208 0.09895168 0.07505442 -0.16541812
0003f0 03 2f b0 bd 4c a7 da bd 58 38 3a bd 1d 21 a0 bc
       -0.08602717 -0.106764406 -0.04546389 -0.01954704

params,Dense_12,bias f4 [128]
000000 00 00 00 00 00 00 00 00 00 00 00 00 00 00 00 00
       0.0 0.0 0.0 0.0
000010 00 00 00 00 00 00 00 00 00 00 00 00 00 00 00 00
       0.0 0.0 0.0 0.0
000020 00 00 00 00 00 00 00 00 00 00 00 00 00 00 00 00
       0.0 0.0 0.0 0.0
000030 00 00 00 00 00 00 00 00 00 00 00 00 00 00 00 00
       0.0 0.0 0.0 0.0
000040 00 00 00 00 00 00 00 00 00 00 00 00 00 00 00 00
       0.0 0.0 0.0 0.0
000050 00 00 00 00 00 00 00 00 00 00 00 00 00 00 00 00
       0.0 0.0 0.0 0.0
000060 00 00 00 00 00 00 00 00 00 00 00 00 00 00 00 00
       0.0 0.0 0.0 0.0
000070 00 00 00 00 00 00 00 00 00 00 00 00 00 00 00 00
       0.0 0.0 0.0 0.0
000080 00 00 00 00 00 00 00 00 00 00 00 00 00 00 00 00
       0.0 0.0 0.0 0.0
000090 00 00 00 00 00 00 00 00 00 00 00 00 00 00 00 00
       0.0 0.0 0.0 0.0
0000a0 00 00 00 00 00 00 00 00 00 00 00 00 00 00 00 00
       0.0 0.0 0.0 0.0
0000b0 00 00 00 00 00 00 00 00 00 00 00 00 00 00 00 00
       0.0 0.0 0.0 0.0
0000c0 00 00 00 00 00 00 00 00 00 00 00 00 00 00 00 00
       0.0 0.0 0.0 0.0
0000d0 00 00 00 00 00 00 00 00 00 00 00 00 00 00 00 00
       0.0 0.0 0.0 0.0
0000e0 00 00 00 00 00 00 00 00 00 00 00 00 00 00 00 00
       0.0 0.0 0.0 0.0
0000f0 00 00 00 00 00 00 00 00 00 00 00 00 00 00 00 00
       0.0 0.0 0.0 0.0
000100 00 00 00 00 00 00 00 00 00 00 00 00 00 00 00 00
       0.0 0.0 0.0 0.0
000110 00 00 00 00 00 00 00 00 00 00 00 00 00 00 00 00
       0.0 0.0 0.0 0.0
000120 00 00 00 00 00 00 00 00 00 00 00 00 00 00 00 00
       0.0 0.0 0.0 0.0
000130 00 00 00 00 00 00 00 00 00 00 00 00 00 00 00 00
       0.0 0.0 0.0 0.0
000140 00 00 00 00 00 00 00 00 00 00 00 00 00 00 00 00
       0.0 0.0 0.0 0.0
000150 00 00 00 00 00 00 00 00 00 00 00 00 00 00 00 00
       0.0 0.0 0.0 0.0
000160 00 00 00 00 00 00 00 00 00 00 00 00 00 00 00 00
       0.0 0.0 0.0 0.0
000170 00 00 00 00 00 00 00 00 00 00 00 00 00 00 00 00
       0.0 0.0 0.0 0.0
000180 00 00 00 00 00 00 00 00 00 00 00 00 00 00 00 00
       0.0 0.0 0.0 0.0
000190 00 00 00 00 00 00 00 00 00 00 00 00 00 00 00 00
       0.0 0.0 0.0 0.0
0001a0 00 00 00 00 00 00 00 00 00 00 00 00 00 00 00 00
       0.0 0.0 0.0 0.0
0001b0 00 00 00 00 00 00 00 00 00 00 00 00 00 00 00 00
       0.0 0.0 0.0 0.0
0001c0 00 00 00 00 00 00 00 00 00 00 00 00 00 00 00 00
       0.0 0.0 0.0 0.0
0001d0 00 00 00 00 00 00 00 00 00 00 00 00 00 00 00 00
       0.0 0.0 0.0 0.0
0001e0 00 00 00 00 00 00 00 00 00 00 00 00 00 00 00 00
       0.0 0.0 0.0 0.0
0001f0 00 00 00 00 00 00 00 00 00 00 00 00 00 00 00 00
       0.0 0.0 0.0 0.0

params,Dense_12,kernel f4 [128, 128]
000000 84 40 bf bd b1 6e 4c be 73 6b 93 3d 00 79 f4 3d
       -0.09338477 -0.199641 0.07198229 0.119371414
000010 4c ce c6 bd 44 a2 55 bb 41 98 20 3d 12 87 f4 bd
       -0.09707317 -0.0032597939 0.0392077 -0.11939825
000020 63 77 cb bb 6e 3d 49 bd 09 9d 81 be 5b d6 88 3e
       -0.0062093004 -0.04913085 -0.2531512 0.2672604
000030 2b 39 02 3d 16 95 4d bd d3 da 93 3c 98 cc 07 be
       0.0317928 -0.050191008 0.01804868 -0.1326164
000040 79 fb ab bd 35 75 0e ba 6f 5d 03 be dd 21 0c bd
       -0.08397574 -0.00054343353 -0.12828611 -0.034211982
000050 f6 ac bc 3c 94 2f 2a be 4d c2 82 bc 8f c1 5c 3e
       0.023031693 -0.16619712 -0.01596179 0.21558212
000060 09 df a0 3c d0 b6 c3 3d 60 32 a5 3c 42 43 4b 3e
       0.019637601 0.09556353 0.020165622 0.19849876
000070 7c fa fe 3c ea 0c 7b be bb 62 e7 bd 85 31 2e 3e
       0.0311253 -0.24516645 -0.11298128 0.17011078
000080 7d 88 f0 3d c7 ef f8 bd 0f ae fa bc 30 f6 30 bd
       0.11744783 -0.12155109 -0.030600576 -0.043203533
000090 99 10 ae bd b3 78 cf 3d d9 ca d9 3d f5 41 01 be
       -0.084992595 0.101304434 0.10634393 -0.12622817
0000a0 ea 73 6f bd 16 53 cd 3d 27 07 05 3e 27 b3 67 be
       -0.058460154 0.10025613 0.1299101 -0.22626935
0000b0 a3 a6 bb 3d 5d 06 4c be b0 5a 97 3d 39 4f 1d bd
       0.09162643 -0.19924302 0.07390344 -0.03840563
0000c0 b2 f8 12 be 62 84 2a bd b9 5a 82 3e 56 7a 7d 3d
       -0.14352682 -0.041630156 0.2545984 0.061884247
0000d0 e2 cc 0f be ed ed 41 be e2 a6 7b 3e ab 1f 7d bd
       -0.14043 -0.18938418 0.2457538 -0.06179778
0000e0 bb 49 1b be 50 73 c9 bd 9a 69 39 3d 6e e0 47 3e
       -0.15164845 -0.09836447 0.045266725 0.19519207
0000f0 7a 11 1d 3e 59 1e b4 3d ba 14 5e be 5a e4 f8 bc
       0.15338698 0.08794851 -0.21687594 -0.030382324
000100 38 bd e1 3d fc 65 3c bc 3c a3 7d be 24 3f af bc
       0.11022419 -0.011498924 -0.247693 -0.021392412
000110 6d d7 3d 3d 67 9b f7 3c 3e 05 b2 bd be 0e 11 be
       0.046348024 0.030225469 -0.08692406 -0.1416578
000120 9c e8 6d 3c 88 de d8 3c 40 b9 dd bd b1 b3 d3 3c
       0.01452079 0.026473299 -0.10826349 0.02584252
000130 c3 da 23 3e 88 29 48 3e ba 15 b8 bc 07 4a 25 be
       0.1600142 0.19547093 -0.022471298 -0.1614152
000140 f6 d9 9f bd 5d 36 dc bd d0 9b e6 3b d4 c5 6b be
       -0.078052446 -0.107525565 0.0070376173 -0.23024684
000150 1a 68 ce bb 7f 35 a5 3d f8 81 43 be 06 3a 67 3d
       -0.006299031 0.08066844 -0.19092548 0.05645182
000160 b2 76 76 bc b0 8d 18 be b3 86 1f bd 73 60 1a 3d
       -0.015042948 -0.148978 -0.03894682 0.037689637
000170 ab eb 7a be 7d ed 63 be 04 eb 02 be 1a 86 cb 3b
       -0.24503963 -0.22258563 -0.12784964 0.0062110545
000180 cb 64 34 3e 92 c9 d4 3d 1a 18 8b bd 5a a2 54 3e
       0.17616574 0.10390009 -0.067917064 0.20765057
000190 e9 10 c8 bc c3 b1 40 3d 03 5d c9 3c a3 b7 ae bd
       -0.024422126 0.047044527 0.024580484 -0.0853112
0001a0 6d 3e 93 bd ce 9e 0a 3d 56 02 48 3d 82 fe ad bd
       -0.07189641 0.033842854 0.048830353 -0.08495809
0001b0 63 b0 09 3b e0 21 b3 3d 4a 56 12 3e 4d 4b 09 3e
       0.0021009676 0.087466955 0.14290729 0.13407631
0001c0 a6 28 ac 3d eb b1 71 3e 01 9e b9 3d e2 9a c1 3d
       0.084061906 0.23603027 0.0906334 0.0945337
0001d0 60 2c 6f 3a b2 cf 77 3d f0 36 32 be d4 7f be bd
       0.0009123739 0.060500808 -0.1740377 -0.09301725
0001e0 5b 10 98 bd eb 4c 17 be cf 55 de 3d 0a 10 ec 3d
       -0.074249946 -0.14775436 0.108562104 0.11526497
0001f0 fc 54 22 3e c4 72 8d be 80 46 09 bd c4 1a 7b bd
       0.15852731 -0.27626622 -0.0335145 -0.061304823
000200 8b c1 0a bd e9 a6 22 3e 2d 4b ac 3c 99 77 87 bc
       -0.033875983 0.15883984 0.02103194 -0.01653652
000210 df 03 31 be d1 0b 02 3e f4 2f 0c bd 93 c3 49 3d
       -0.17286633 0.1269982 -0.03422542 0.04925878
000220 64 a0 16 be 43 64 fa 3d 29 6a ef 3d af 04 f5 3d
       -0.14709622 0.12226155 0.1169017 0.11963784
000230 96 60 8b bd d0 10 e5 bd 29 55 5e be 7c d5 4a be
       -0.06805532 -0.11184847 -0.21712174 -0.19808
000240 a9 fa 0e bd f2 ce 54 be ef 96 35 3c f6 c3 43 3e
       -0.034907017 -0.20782068 0.011083349 0.19117722
000250 5f eb 14 be 13 69 ab 3d 2e 54 81 3d 81 aa 01 be
       -0.14542912 0.08369651 0.06314884 -0.12662698
000260 d2 a1 d6 3d 1f 04 62 be 19 ae e0 3d 17 f5 64 be
       0.104800835 -0.22071885 0.109707065 -0.2235912
000270 d4 5e 86 3c bb d6 15 bd 68 36 80 3e 98 13 37 bd
       0.01640264 -0.036581736 0.2504151 -0.04469642
000280 ea ea 96 bd 5c 17 3c bd 1b 20 41 3e 56 e3 cc bd
       -0.07369025 -0.045920715 0.18859904 -0.100042984
000290 06 6e d9 bc 0b bf 0d 3d a5 1f 3e 3c b4 72 6a 3d
       -0.026541721 0.03460602 0.011604224 0.057238296
0002a0 a6 b4 03 3d 41 09 2b 3d ca 18 e4 3d 5a 64 87 3e
       0.0321547 0.041756872 0.11137541 0.2644375
0002b0 c6 90 4c bd 4f 8b c6 3d 5e c8 6b be 7a 79 7d bc
       -0.049942754 0.0969454 -0.23025653 -0.015470857
0002c0 a4 cd 13 3e b2 bb 14 3d b0 45 d6 bd 2f bb 77 3e
       0.14433914 0.036311813 -0.104625106 0.24192499
0002d0 00 39 f5 bd fd f4 f3 3b 51 e0 21 be 16 2c 29 3d
       -0.119737625 0.0074449764 -0.15808226 0.04130181
0002e0 03 84 45 be 78 0d 48 be 8e 5b 40 be c8 8f 76 3e
       -0.1928864 -0.19536388 -0.18784925 0.24078286
0002f0 63 1d f9 3c bc 62 6e bd a5 c0 65 be dc 24 be bd
       0.03040952 -0.05819963 -0.2243677 -0.09284374
000300 c1 6b a5 bd 2f a4 89 3d cc 8c 1d 3d 23 4e df bc
       -0.08077193 0.06720769 0.038464352 -0.027258938
000310 5e 1c 64 3e 28 68 31 3d cc 9d 07 bd 46 6f d8 bd
       0.22276446 0.04331222 -0.03310947 -0.10568099
000320 3c cf e7 3d 3e 19 26 3c d8 2a 8a be 32 2a 21 be
       0.11318824 0.010137854 -0.26985812 -0.15738752
000330 08 22 be bc b7 c5 b5 3c d1 b0 5d bd ba 0c 18 be
       -0.023209587 0.022189004 -0.054123703 -0.14848605
000340 74 f2 aa 3d a0 5b 26 be 60 04 83 3c be a9 a6 3c
       0.083470255 -0.1624589 0.015993297 0.020344611
000350 e5 ba 22 3d 9b 70 5e 3d 45 0f 34 3e 08 64 2b be
       0.039729018 0.054306608 0.1758395 -0.16737378
000360 a7 58 ff bd 23 ec 2f be 00 5f 82 be 89 2d 0c 3d
       -0.12468081 -0.17179923 -0.25463104 0.034223113
000370 2c 86 93 bd c0 11 e4 3a aa d2 64 be 1a 06 ee 3d
       -0.07203326 0.001740031 -0.22345987 0.116222575
000380 ea d3 59 bd eb 6c 04 3e c8 00 a0 bd 6b 10 0e 3e
       -0.053180613 0.12932174 -0.07812649 0.1387345
000390 0a 3f 4f be 5c a4 85 bd d6 13 1e bc d7 6d 32 bd
       -0.20238891 -0.0652549 -0.009648284 -0.043561783
0003a0 fa fe 20 be 5c 2a f0 bc 46 26 5e bd f1 be f9 bd
       -0.15722266 -0.029317074 -0.05423572 -0.12194622
0003b0 a7 ec 81 bd 56 c6 1b bd 70 7e bd 3d 3e 0e 17 be
       -0.06343966 -0.038030945 0.09252632 -0.14751527
0003c0 c2 f6 de 3d 47 f9 e4 bd cf 71 67 be 39 0e ab bd
       0.10886909 -0.111803584 -0.22602008 -0.08352322
0003d0 7a 3e fa 3d 7d cd ba 3c 14 f2 c2 3c 38 10 77 bc
       0.12218948 0.022803063 0.023797072 -0.01507955
0003e0 93 24 16 be 03 e8 c3 3c 2b 5f eb bd 7b 59 1f 3e
       -0.1466239 0.023914343 -0.11492761 0.15561478
0003f0 60 08 78 bc db af 42 3b 43 7e 4b bd a2 20 51 be
       -0.0151387155 0.0029706869 -0.04968096 -0.20422605

params,Dense_13,bias f4 [128]
000000 00 00 00 00 00 00 00 00 00 00 00 00 00 00 00 00
       0.0 0.0 0.0 0.0
000010 00 00 00 00 00 00 00 00 00 00 00 00 00 00 00 00
       0.0 0.0 0.0 0.0
000020 00 00 00 00 00 00 00 00 00 00 00 00 00 00 00 00
       0.0 0.0 0.0 0.0
000030 00 00 00 00 00 00 00 00 00 00 00 00 00 00 00 00
       0.0 0.0 0.0 0.0
000040 00 00 00 00 00 00 00 00 00 00 00 00 00 00 00 00
       0.0 0.0 0.0 0.0
000050 00 00 00 00 00 00 00 00 00 00 00 00 00 00 00 00
       0.0 0.0 0.0 0.0
000060 00 00 00 00 00 00 00 00 00 00 00 00 00 00 00 00
       0.0 0.0 0.0 0.0
000070 00 00 00 00 00 00 00 00 00 00 00 00 00 00 00 00
       0.0 0.0 0.0 0.0
000080 00 00 00 00 00 00 00 00 00 00 00 00 00 00 00 00
       0.0 0.0 0.0 0.0
000090 00 00 00 00 00 00 00 00 00 00 00 00 00 00 00 00
       0.0 0.0 0.0 0.0
0000a0 00 00 00 00 00 00 00 00 00 00 00 00 00 00 00 00
       0.0 0.0 0.0 0.0
0000b0 00 00 00 00 00 00 00 00 00 00 00 00 00 00 00 00
       0.0 0.0 0.0 0.0
0000c0 00 00 00 00 00 00 00 00 00 00 00 00 00 00 00 00
       0.0 0.0 0.0 0.0
0000d0 00 00 00 00 00 00 00 00 00 00 00 00 00 00 00 00
       0.0 0.0 0.0 0.0
0000e0 00 00 00 00 00 00 00 00 00 00 00 00 00 00 00 00
       0.0 0.0 0.0 0.0
0000f0 00 00 00 00 00 00 00 00 00 00 00 00 00 00 00 00
       0.0 0.0 0.0 0.0
000100 00 00 00 00 00 00 00 00 00 00 00 00 00 00 00 00
       0.0 0.0 0.0 0.0
000110 00 00 00 00 00 00 00 00 00 00 00 00 00 00 00 00
       0.0 0.0 0.0 0.0
000120 00 00 00 00 00 00 00 00 00 00 00 00 00 00 00 00
       0.0 0.0 0.0 0.0
000130 00 00 00 00 00 00 00 00 00 00 00 00 00 00 00 00
       0.0 0.0 0.0 0.0
000140 00 00 00 00 00 00 00 00 00 00 00 00 00 00 00 00
       0.0 0.0 0.0 0.0
000150 00 00 00 00 00 00 00 00 00 00 00 00 00 00 00 00
       0.0 0.0 0.0 0.0
000160 00 00 00 00 00 00 00 00 00 00 00 00 00 00 00 00
       0.0 0.0 0.0 0.0
000170 00 00 00 00 00 00 00 00 00 00 00 00 00 00 00 00
       0.0 0.0 0.0 0.0
000180 00 00 00 00 00 00 00 00 00 00 00 00 00 00 00 00
       0.0 0.0 0.0 0.0
000190 00 00 00 00 00 00 00 00 00 00 00 00 00 00 00 00
       0.0 0.0 0.0 0.0
0001a0 00 00 00 00 00 00 00 00 00 00 00 00 00 00 00 00
       0.0 0.0 0.0 0.0
0001b0 00 00 00 00 00 00 00 00 00 00 00 00 00 00 00 00
       0.0 0.0 0.0 0.0
0001c0 00 00 00 00 00 00 00 00 00 00 00 00 00 00 00 00
       0.0 0.0 0.0 0.0
0001d0 00 00 00 00 00 00 00 00 00 00 00 00 00 00 00 00
       0.0 0.0 0.0 0.0
0001e0 00 00 00 00 00 00 00 00 00 00 00 00 00 00 00 00
       0.0 0.0 0.0 0.0
0001f0 00 00 00 00 00 00 00 00 00 00 00 00 00 00 00 00
       0.0 0.0 0.0 0.0
